p2_continuous-control/checkpoint_actor.pth (torch_old, 39689 bytes, 4 tensors)

fc1.weight f4 [256, 33]
-0.020273466 0.024800764 -0.07230409 -0.037318256 0.024898091 -0.008659965 0.00014055667 0.07303513
-0.03972103 0.030199563 0.014468079 0.087127455 -0.008386014 0.044884 0.023211306 -0.0030253483
0.021757804 0.022005567 -0.026474189 -0.03947751 0.03478762 -0.010386304 0.003576582 0.02107634
0.02175809 0.029059207 0.012669813 -0.029846497 -0.006581233 -0.043719634 -0.029660903 -0.028503686
0.025347145 0.023824116 -0.0016554398 -0.01031872 -0.0029230607 -0.050575804 0.02297648 0.034543972
-0.03099091 0.0206137 0.036101058 0.01668835 0.050308023 -0.030764783 0.017296093 -0.02310179
0.03201876 -0.04094779 0.039204497 -0.022142941 1.8021472e-06 0.048395034 -0.015351532 0.048981193
-0.01725963 0.032516617 -0.048827704 0.05353737 0.052998528 -0.033197522 0.0051438436 0.0375608
0.025813088 0.0041282726 -0.040366128 0.055687167 0.05792311 0.039721753 -0.012887933 0.033917196
0.013602935 3.8737817e-06 -0.018135702 0.05528553 0.050815675 0.06319159 -0.052341927 0.016199175
0.004331621 -0.008031744 0.018664572 0.036511164 0.044347614 0.038990922 -0.027948493 -0.012357712
0.02158009 0.040426306 -0.007112177 -0.010058242 0.036591645 0.053853232 -0.023619508 -0.05686894
0.03679877 -0.056744285 0.044431407 -0.0060052965 0.06879188 0.012380361 -0.014322029 -0.009815812
-0.006707338 0.019581608 0.029755337 -0.009232756 -0.011387897 0.04624835 0.046741977 0.0027586943
0.06144075 0.04222603 -0.04435521 0.022233285 0.009185987 0.0055804783 -0.02284865 0.010832773
0.03403507 -0.045808088 -0.04013611 -0.020402793 0.019018529 0.043243207 0.0068923905 -0.051711224
-0.050982445 0.057020284 -0.013999827 -0.043394953 0.011515689 -0.03236167 -0.001632112 -0.004490982
-0.035212226 -0.00939519 -0.014265889 0.03705391 -0.021266645 0.02486132 -0.018002275 0.0010419916
-0.014154602 -0.056213506 0.03779315 -0.052706424 0.0400565 -0.0021611676 -0.027734432 -0.04219398
-0.010838429 -0.053750623 -0.043919444 -0.002050683 0.04747533 -0.05625992 0.0011222546 -0.017771665
0.072284445 -0.05925665 -0.05122583 -0.04799176 -0.048427712 -0.03336528 0.03170741 -0.022515893
0.054444596 -0.03286415 0.031950273 -0.05204959 0.055040624 -0.012659099 0.06762316 -0.021986492
-0.05874557 -0.05523572 -0.04733425 -0.027258063 -0.021595785 0.006226686 -0.013135538 0.062086575
0.052376628 0.05604194 -0.039492443 0.023611905 -0.027625872 -0.057506688 -0.070002384 -0.0009796129
0.037504908 0.0037747282 0.008220501 0.07750595 -0.040112376 0.015679628 0.054543342 0.027572978
0.04595018 -0.06606284 -0.026814183 0.029725201 -0.018154088 0.05872276 -0.022629665 -0.003114046
0.008776987 -0.051678192 0.0021678775 0.021106487 -0.023358585 -0.009149578 -0.06168837 0.008997105
-0.02191843 -0.04214259 -0.0052862237 0.005242416 0.03437241 0.018114468 0.044213023 -0.035808533
0.008354286 -0.056001652 0.06878987 -0.038356565 -0.019125316 0.057131156 -0.030084323 0.063154064
-0.050961845 -0.06409096 0.038242143 -0.04047008 -0.016590968 -0.043419372 0.006073592 0.051187098
-0.005584189 0.0575957 0.03355946 -0.019826313 -0.045828436 -0.035053946 0.0024776969 0.0143458
-0.012780162 0.051688064 -0.014707518 0.059351042 0.0011168164 0.049614042 -0.04132958 0.03916806
00000000: 8a14 a6bc f92a cb3c 2b14 94bd 07db 18bd
00000010: 15f7 cb3c 87e2 0dbc 6562 1339 7193 953d
00000020: 85b2 22bd 1365 f73c 860b 6d3c e16f b23d
00000030: 7e65 09bc 49d8 373d a325 be3c ec44 46bb
00000040: 6c3d b23c 0545 b43c 66e0 d8bc 2bb3 21bd
00000050: 777d 0e3d 512b 2abc 1765 6a3b 4aa8 ac3c
00000060: 063e b23c 930d ee3c 0c95 4f3c a480 f4bc
00000070: 62a7 d7bb 5c13 33bd 6cfb f2bc 9080 e9bc
00000080: d1a4 cf3c cb2a c33c 58fb d8ba d90f 29bc
00000090: d290 3fbb 9328 4fbd 2c39 bc3c fb7d 0d3d
000000a0: a6e0 fdbc 10de a83c b4de 133d 02b6 883c
000000b0: c90f 4e3d 6d06 fcbc 89b0 8d3c f73f bdbc
000000c0: 1a26 033d dfb8 27bd e594 203d 1d65 b5bc
000000d0: 4ee1 f135 df39 463d fe84 7bbc 81a0 483d
000000e0: 1164 8dbc 2530 053d 8fff 47bd 004a 5b3d
000000f0: fc14 593d 20fa 07bd b08d a83b 5ad9 193d
00000100: f875 d33c 7646 873b f456 25bd 3a18 643d
00000110: c840 6d3d 47b3 223d e927 53bc c2ec 0a3d
00000120: d8de 5e3c 88fb 8136 5391 94bc 1473 623d
00000130: 1924 503d 986a 813d 7d64 56bd 22b4 843c
00000140: 45f0 8d3b 9397 03bc 72e6 983c bb8c 153d
00000150: d8a5 353d f2b4 1f3d 3df4 e4bc 0078 4abc
00000160: bbc8 b03c 0e96 253d 440d e9bb 53cb 24bc
00000170: 1fe1 153d 3595 5c3d b37d c1bc 68ef 68bd
00000180: 4fba 163d b26c 68bd b5fd 353d 14c8 c4bb
00000190: c2e2 8c3d ffd6 4a3c f2a6 6abc 80d2 20bc
000001a0: 3bc9 dbbb 9c69 a03c 77c1 f33c fc44 17bc
000001b0: 4d94 3abc e96e 3d3d 8474 3f3d 36cb 343b
000001c0: 4ca9 7b3d 34f5 2c3d cfad 35bd 9422 b63c
000001d0: d280 163c 72dc b63b 182d bbbc f17b 313c
000001e0: 5c68 0b3d 43a1 3bbd c365 24bd c223 a7bc
000001f0: bfcc 9b3c ca1f 313d 90d9 e13b 26cf 53bd
00000200: f8d2 50bd 1a8e 693d 885f 65bc e8be 31bd
00000210: 4dac 3c3c ac8d 04bd 97ec d5ba 1629 93bb
00000220: b23a 10bd 48ee 19bc 7abb 69bc d7c5 173d
00000230: 6337 aebc f8a9 cb3c 8279 93bc 7093 883a
00000240: b4e8 67bc 2240 66bd fdcc 1a3d b1e2 57bd
00000250: 4912 243d 60a2 0dbb 5233 e3bc 98d3 2cbd
00000260: ab93 31bc 9d29 5cbd e0e4 33bd c064 06bb
00000270: 7e75 423d cd70 66bd 9e18 933a e295 91bc
00000280: de09 943d 1ab7 72bd 2dd2 51bd 0293 44bd
00000290: 235c 46bd 08aa 08bd a1df 013d 4073 b8bc
000002a0: 4c01 5f3d 8f9c 06bd 4ade 023d f331 55bd
000002b0: 4772 613d 1c68 4fbc 037e 8a3d 041d b4bc
000002c0: 329f 70bd da3e 62bd 8fe1 41bd 4d4c dfbc
000002d0: a5e9 b0bc 3a09 cc3b 7136 57bc 7e4e 7e3d
000002e0: e088 563d 3c8c 653d d4c2 21bd c16d c13c
000002f0: a74f e2bc 228c 6bbd 695d 8fbd 5b66 80ba
00000300: bf9e 193d 6e61 773b 48af 063c 71bb 9e3d
00000310: e04c 24bd 9072 803c d768 5f3d bae0 e13c
00000320: 4236 3c3d f44b 87bd 6ba9 dbbc 4482 f33c
00000330: e2b7 94bc 4787 703d d961 b9bc 0615 4cbb
00000340: 5acd 0f3c 83ac 53bd f312 0e3b 83e7 ac3c
00000350: 815a bfbc 1de8 15bc f2ac 7cbd 9868 133c
00000360: 488e b3bc b59d 2cbd 0f38 adbb 93c8 ab3b
00000370: 16ca 0c3d cb64 943c b718 353d f8ab 12bd
00000380: 6ae0 083c fd61 65bd b4e1 8c3d c61b 1dbd
00000390: b2ac 9cbc 5c02 6a3d 6673 f6bc eb56 813d
000003a0: 5ebd 50bd 1f42 83bd cba3 1c3d f4c3 25bd
000003b0: c8e9 87bc 83d8 31bd fc04 c73b 90a9 513d
000003c0: 93fb b6bb 78e9 6b3d a575 093d cb6a a2bc
000003d0: 99b6 3bbd ba94 0fbd db60 223b a50a 6b3c
000003e0: e263 51bc ddb6 533d cdf7 70bc 141a 733d
000003f0: 2462 923a 1838 4b3d 3549 29bd b06e 203d

fc1.bias f4 [256]
0.16552308 -0.16921449 -0.059470642 0.081160665 0.11189082 0.108351685 -0.10109041 0.059450507
0.15787698 -0.059193004 -0.019068705 -0.0036708135 -0.040532477 0.14915338 -0.023372317 -0.13102622
0.016295495 -0.017958628 0.10688117 0.15259114 -0.09823071 -0.046357304 -0.005849305 0.14293806
-0.14702396 0.12079156 0.15122409 0.0301294 -0.08420795 0.036617298 -0.08212813 -0.005147287
0.16523397 -0.1354111 0.16699181 0.08377724 0.121643275 -0.12583335 -0.053355798 0.14777018
-0.13478614 0.17489535 -0.017970743 -0.17247748 0.15406236 0.059723806 0.01311443 0.009269183
-0.07561144 -0.042157713 0.060778923 0.04206186 0.047708042 0.05579231 0.13722497 0.14038572
0.09733759 0.04400589 -0.088501565 0.14106455 0.06413766 -0.10510697 -0.11660597 -0.07440542
0.18198359 0.12402069 -0.009283094 -0.09777209 0.019150997 -0.03842829 0.08668117 -0.14068903
0.05987421 0.102396324 0.15694551 0.16709249 -0.06899058 -0.03926829 0.16296719 0.13876818
7.01328e-05 -0.02533274 -0.09710302 -0.06517062 0.10452398 0.026093101 0.058507863 0.0424937
0.17308937 0.03595232 -0.15483332 0.09290837 0.09552179 -0.08385861 0.092341326 0.05061382
-0.0020784156 -0.16449119 -0.056020357 0.09760672 0.14985187 0.08684372 -0.07365234 -0.07534141
-0.09410478 0.13249356 -0.06501905 -0.117089234 -0.11895491 0.050399795 0.0091951545 0.17455101
0.017372431 -0.031398345 -0.06896841 -0.11107745 -0.06378043 0.13799635 -0.0060669896 -0.07264064
-0.014452852 -0.114652164 -0.11155701 -0.07995366 0.035489116 -0.09359409 -0.12939832 0.036690284
0.043203343 0.06535554 -0.012286025 -0.045036834 0.12449125 0.012513693 0.14202479 -0.0913839
0.037041757 0.16920747 -0.009827896 -0.065730795 0.022088263 -0.09361271 0.07429489 -0.079988815
0.18447919 0.18141438 0.03257622 0.086006545 -0.027112862 0.030989893 -0.14787588 0.016720405
0.048585977 0.079745114 0.13100764 0.01362668 -0.13451947 -0.021753436 0.022948906 0.1140049
-0.13590282 0.1307986 0.14288516 0.07553911 -0.15971945 -0.011438992 0.05527346 -0.0738916
0.09256524 -0.05053869 -0.112269096 0.03151493 0.03221178 0.056485925 -0.049766846 0.1354691
-0.020409673 0.16037586 -0.08481182 -0.008618084 0.07150079 0.09900735 0.1723334 0.05375727
-0.096281685 0.08491677 -0.039389633 0.17607172 -0.0041290796 -0.025811728 -0.016892608 0.13789253
-0.07149885 -0.06410932 -0.14086251 -0.10700733 0.14885594 -0.13757047 -0.06681202 0.018160893
-0.09083573 0.007938842 0.14087112 0.12079942 0.04828702 0.008972688 -0.104382485 0.07549545
0.080346815 -0.036998067 -0.07859929 0.0062899054 0.134885 -0.1099988 0.083406225 -0.09200248
-0.01937574 -0.1552943 0.15991622 0.08566622 0.01223071 -0.12164781 -0.13202962 -0.052017692
0.0362989 0.13915864 0.10349813 0.1596113 0.017741062 0.17605713 0.08128843 0.15326916
-0.15759234 0.026251348 0.064605154 0.012664352 0.16649346 0.04741574 0.18664558 -0.17826657
0.054307465 -0.09191478 0.061171733 -0.15430698 -0.09640179 0.1613736 0.013011362 0.14486088
-0.16050242 0.047793444 -0.033805884 -0.035907008 0.09693293 -0.07052341 -0.10211944 0.010018775
00000000: e27e 293e 9046 2dbe 7d97 73bd 9037 a63d
00000010: 0427 e53d 7de7 dd3d 7d08 cfbd 6082 733d
00000020: 81aa 213e 5d74 72bd f935 9cbc 0892 70bb
00000030: 6205 26bd aabb 183e 4d77 bfbc bd2b 06be
00000040: 217e 853c f91d 93bc 84e4 da3d da40 1c3e
00000050: 2f2d c9bd 28e1 3dbd 87ab bfbb 5b5e 123e
00000060: 738d 16be 9161 f73d 7dda 1a3e eed1 f63c
00000070: 3875 acbd 05fc 153d cb32 a8bd 93aa a8bb
00000080: 1833 293e 35a9 0abe e7ff 2a3e 6793 ab3d
00000090: 1c20 f93d 75da 00be 9c8b 5abd 1151 173e
000000a0: 6105 0abe c417 333e 6137 93bc f09d 30be
000000b0: 86c2 1d3e f3a0 743d e8dd 563c c5dd 173c
000000c0: 2cda 9abd 91ad 2cbd 52f3 783d 0f49 2c3d
000000d0: 8269 433d 7a86 643d b484 0c3e 46c1 0f3e
000000e0: ee58 c73d 853f 343d 4f40 b5bd 3a73 103e
000000f0: 9b5a 833d 5342 d7bd 1ccf eebd de61 98bd
00000100: e859 3a3e 8ffe fd3d 1e18 18bc bc3c c8bd
00000110: 8de2 9c3c fc66 1dbd e685 b13d c910 10be
00000120: a93e 753d 2ab5 d13d 53b6 203e 4b1a 2b3e
00000130: ef4a 8dbd c9d7 20bd dfe0 263e 3f19 0e3e
00000140: 4314 9338 9b86 cfbc f3dd c6bd 2d78 85bd
00000150: ab10 d63d 33c1 d53c f1a5 6f3d e00d 2e3d
00000160: 573e 313e bd42 133d a08c 1ebe be46 be3d
00000170: eea0 c33d 10be abbd 731d bd3d 7050 4f3d
00000180: 0736 08bb 6170 28be 9a75 65bd 08e6 c73d
00000190: c572 193e 1fdb b13d 0ad7 96bd 994c 9abd
000001a0: 02ba c0bd 64ac 073e b528 85bd 7bcc efbd
000001b0: a29e f3bd 0470 4e3d 46a7 163c 80bd 323e
000001c0: a150 8e3c 8d9b 00bd 4f3f 8dbd 937c e3bd
000001d0: 509f 82bd ea4e 0d3e 99cd c6bb 9ec4 94bd
000001e0: a8cb 6cbc c1ce eabd 0078 e4bd bfbe a3bd
000001f0: 095d 113d 42ae bfbd fe80 04be 8d48 163d
00000200: fdf5 303d 20d9 853d 534b 49bc 8b78 38bd
00000210: 45f5 fe3d 3c06 4d3c f26e 113e 7b27 bbbd
00000220: 19b9 173d b944 2d3e 2f05 21bc de9d 86bd
00000230: 72f2 b43c 05b8 bfbd eb27 983d 2dd1 a3bd
00000240: 1de8 3c3e b1c4 393e a46e 053d 3324 b03d
00000250: cb1b debc 84de fd3c c66c 17be 3bf9 883c
00000260: 1702 473d 6851 a33d de26 063e 7042 5f3c
00000270: 79bf 09be 4334 b2bc 58ff bb3c 677b e93d
00000280: 1c2a 0bbe 11f0 053e 7d50 123e 40b4 9a3d
00000290: 7f8d 23be 9c6a 3bbc 6c66 623d 7b54 97bd
000002a0: d892 bd3d a801 4fbd 57ed e5bd cd15 013d
000002b0: 80f0 033d c95d 673d 52d8 4bbd 69b8 0a3e
000002c0: 3032 a7bc 9239 243e d2b1 adbd dd32 0dbc
000002d0: 026f 923d 5ec4 ca3d 2b78 303e 9530 5c3d
000002e0: 552f c5bd d8e8 ad3d 0657 21bd 254c 343e
000002f0: 3b4d 87bb 1e73 d3bc 5e62 8abc b333 0d3e
00000300: fd6d 92bd bf4b 83bd 433e 10be a926 dbbd
00000310: b16d 183e 46df 0cbe bed4 88bd 27c6 943c
00000320: 1508 babd eb11 023c 8540 103e b065 f73d
00000330: 9cc8 453d 2e02 133c 7cc6 d5bd 5c9d 9a3d
00000340: df8c a43d 498b 17bd aaf8 a0bd 8d1b ce3b
00000350: 4b1f 0a3e 0d47 e1bd e2d0 aa3d cc6b bcbd
00000360: dfb9 9ebc 7805 1fbe 14c1 233e c571 af3d
00000370: 5163 483c 7d22 f9bd c632 07be 8110 55bd
00000380: 28ae 143d 9a7f 0e3e d4f6 d33d 2571 233e
00000390: b455 913c 5248 343e 8c7a a63d 97f2 1c3e
000003a0: e35f 21be 110d d73c b54f 843d 247e 4f3c
000003b0: 437d 2a3e 0237 423d 0520 3f3e 838b 36be
000003c0: 8171 5e3d d13d bcbd 368f 7a3d a602 1ebe
000003d0: 4d6e c5bd 1f3f 253e 9c2d 553c 6956 143e
000003e0: bf5a 24be 0fc3 433d 0a78 0abd 3a13 13bd
000003f0: c684 c63d 946e 90bd ff23 d1bd ca25 243c

fc2.weight f4 [4, 256]
-0.021590345 -0.0037022566 -0.002426845 -0.007239271 -0.004865561 0.009667016 -0.0041195718 -0.0033976901
0.0051387795 -0.0007825457 -0.021003643 -0.004019264 -0.0060093994 -0.0038682427 0.0007421291 -0.025156774
0.0010998582 0.0022576237 -0.007806395 -0.0007472142 0.009365812 -0.023838254 0.0081203915 0.007205889
-0.016184393 -0.008186612 -0.00436537 0.0033194176 0.0046211854 0.0037089766 -0.02430028 0.0049124737
0.004107092 0.006208633 0.0028980304 -0.00239639 -0.006372605 0.0041057104 -0.0034261418 0.009450139
-0.004004012 -0.013429697 -0.0278793 -0.0034600988 -0.015975272 -0.0024727916 -0.0029726988 -0.0026005416
-0.0088541135 -0.005346509 -0.012731725 0.00937211 0.0022789536 -0.0033265434 -0.0218537 -0.016305968
-0.010476981 -0.006887765 -0.00050470734 -0.007332462 0.005765269 0.0022695807 -0.010489532 -0.0009188851
-0.0051610745 -0.013803986 -0.0020541283 -0.0066372515 0.011148303 0.00386353 -0.012385266 0.010495718
-0.0029374089 0.0055177566 -0.0018453156 0.006961489 -0.0019243504 0.009537502 0.002859444 -0.02662705
0.0010820352 0.010516951 -0.00220252 0.0075039407 -0.023675388 -0.006263612 -0.008208095 -0.023304919
-0.009823245 0.0020461257 -0.0012888717 0.00949712 0.0011771875 -0.02406754 0.0041251993 -0.0054783258
0.006161287 0.00086630526 0.0064743306 -0.017138645 -0.0013692372 0.009093841 -0.0018172577 -0.024054633
0.006304856 -0.007533076 0.007899728 0.00027627745 0.00044888366 0.0041694804 0.0024286243 0.014660206
-0.004373708 -0.0038497662 -0.007176084 0.001214081 -0.013846277 0.0100708315 0.01096127 0.007353824
0.0065747024 -0.0063346513 -0.0044576116 -0.0063765366 -0.0055461195 0.0027985745 0.004682243 0.0029338216
0.0063598817 0.0016853262 0.0028643268 0.011862584 -0.013843716 -0.016577683 -0.0045490754 0.002194707
-0.007098088 -0.016085679 -0.0063726306 0.003135291 0.0039008376 0.0054345764 0.0075271646 -0.0042855367
-0.014494084 -0.014628066 -0.010060671 -0.0032717688 -0.0142371375 -0.0018472306 0.018692974 0.012792096
-0.006639565 -0.008883381 0.010757702 -0.017635163 -0.01075589 0.006205105 0.0070672226 0.007456558
-0.012927396 0.004027798 -0.006969 0.002132031 0.0032663601 0.0050057466 -0.0043454655 -0.026676774
0.0077598724 -0.004960802 0.00699604 -0.0051499587 0.0002491427 -0.0011661067 -0.018576534 -0.008340851
-0.009948063 -0.002176111 -0.0145591395 -0.0033466122 0.008502827 -0.0011741819 -0.021431744 7.1152404e-05
0.007055721 2.1275231e-05 -0.017550666 -0.008872492 -0.029970026 -0.0025102322 -0.004425129 0.0073677977
-0.0062437383 -0.015622402 -0.025254363 -0.005905606 0.008221884 0.0097269565 -0.006006418 -0.006070168
-0.00019343807 -0.015844602 0.004187448 -0.004585222 0.009049608 -0.0038885663 0.008803702 0.001957294
0.007292202 -0.014978449 0.01029199 -0.011499851 -0.0037730448 3.7950536e-05 0.004058171 -0.019546565
-0.02079939 0.0050703883 -0.0051717306 -0.003597388 -0.021976369 -0.013946765 -0.0014392091 8.665116e-05
0.005403541 -0.0082644895 -0.020435723 -0.0020383045 -0.004803098 -0.00023478584 -0.010481696 0.003193358
0.002059329 -0.0015649159 0.00014338118 0.0026769447 -0.0030899062 0.0020756086 7.8498146e-05 -0.003508437
0.0011483601 -0.020355895 0.0050319247 0.010673208 -0.0232915 -0.0033531985 -0.0057094274 -0.013624135
0.0028745427 0.008643334 0.008840172 0.0027995133 -0.0060192165 0.006285067 -0.010821066 -0.010529766
00000000: 3cde b0bc 8fa1 72bb b40b 1fbb 6837 edbb
00000010: 496f 9fbb 6762 1e3c 79fd 86bb c8ab 5ebb
00000020: 3563 a83b c123 4dba d50f acbc 08b4 83bb
00000030: 7fea c4bb 5882 7dbb 718b 423a 9415 cebc
00000040: 1e29 903a a4f4 133b cacc ffbb b2e0 43ba
00000050: 1073 193c 7148 c3bc 640b 053c 611f ec3b
00000060: 2295 84bc 2421 06bc 610b 8fbb 968a 593b
00000070: 506d 973b 4d12 733b 6111 c7bc d1f8 a03b
00000080: c994 863b ca71 cb3b e2ec 3d3b c10c 1dbb
00000090: 49d1 d0bb 3289 863b 1f89 60bb c1d4 1a3c
000000a0: 1634 83bb 3b08 5cbc 2163 e4bc d3c2 62bb
000000b0: 93de 82bc 8f0e 22bb 9cd1 42bb d96d 2abb
000000c0: d810 11bc c531 afbb ba98 50bc 7a8d 193c
000000d0: 7f5a 153b 2302 5abb 8806 b3bc 1894 85bc
000000e0: a5a7 2bbc c3b2 e1bb 564e 04ba 2645 f0bb
000000f0: 95ea bc3b 3fbd 143b 49dc 2bbc 56e1 70ba
00000100: 3b1e a9bb 1d2a 62bc 8e9e 06bb 4d7d d9bb
00000110: 5fa7 363c 4733 7d3b 92eb 4abc 3bf6 2b3c
00000120: 8b81 40bb 4cce b43b 84de f1ba 341d e43b
00000130: 7c3a fcba 2f43 1c3c 8265 3b3b f920 dabc
00000140: 14d3 8d3a 4a4f 2c3c 2758 10bb 9ee3 f53b
00000150: e3f2 c1bc fc3e cdbb 3f7b 06bc f5e9 bebc
00000160: adf1 20bc 4b18 063b 5cef a8ba cf99 1b3c
00000170: dc4b 9a3a 4a29 c5bc ae2c 873b 8783 b3bb
00000180: 9fe4 c93b c318 633a 9f26 d43b 5866 8cbc
00000190: fa77 b3ba 55fe 143c 0d31 eeba 390e c5bc
000001a0: f798 ce3b 06d8 f6bb dc6d 013c 55d9 9039
000001b0: 2558 eb39 23a0 883b 8e29 1f3b 5c31 703c
000001c0: 5251 8fbb 5c4c 7cbb 5b25 ebbb cc21 9f3a
000001d0: 7fdb 62bc 2100 253c e696 333c 59f8 f03b
000001e0: 9a70 d73b e892 cfbb 2811 92bb 44f2 d0bb
000001f0: 39bc b5bb 4a68 373b 806d 993b 5c45 403b
00000200: 8e66 d03b 2ae6 dc3a 6eb7 3b3b 495b 423c
00000210: c1d0 62bc eccd 87bc 6910 95bb 13d5 0f3b
00000220: 1497 e8bb 1dc6 83bc 80d1 d0bb 7479 4d3b
00000230: 32a5 7f3b 8814 b23b 6fa6 f63b b06d 8cbb
00000240: 9878 6dbc 8eaa 6fbc 83d5 24bc 2c6b 56bb
00000250: e242 69bc c61e f2ba 0222 993c f095 513c
00000260: b590 d9bb 9a8b 11bc 1341 303c 9e77 90bc
00000270: 7939 30bc 3254 cb3b 2994 e73b 2456 f43b
00000280: 6ecd 53bc 9efb 833b 365c e4bb 8bb9 0b3b
00000290: 6e10 563b 3f07 a43b 6864 8ebb 4089 dabc
000002a0: 8746 fe3b 398e a2bb 0a3f e53b fcc0 a8bb
000002b0: 5e9f 8239 0cd8 98ba d12d 98bc 11a8 08bc
000002c0: 33fd 22bc 169d 0ebb 7589 6ebc d652 5bbb
000002d0: 714f 0b3c 02e7 99ba a091 afbc a837 9538
000002e0: ad33 e73b 3678 b237 6ac6 8fbc ee5d 11bc
000002f0: b383 f5bc b582 24bb ac00 91bb 916d f13b
00000300: 4698 ccbb 1af5 7fbc 3de2 cebc d083 c1bb
00000310: 15b5 063c d05d 1f3c 7cd1 c4bb 43e8 c6bb
00000320: a3d5 4ab9 8acc 81bc dc36 893b a13f 96bb
00000330: cf44 143c 51d7 7ebb 673d 103c f245 003b
00000340: 6df3 ee3b 2b68 75bc bc9f 283c df69 3cbc
00000350: 3045 77bb 142d 1f38 68fa 843b 1e20 a0bc
00000360: 7b63 aabc 8025 a63b 9f77 a9bb 28c2 6bbb
00000370: c907 b4bc f980 64bc d8a3 bcba 7db8 b538
00000380: 3010 b13b c867 07bc d168 a7bc 1395 05bb
00000390: 4e63 9dbb d830 76b9 6bbb 2bbc a847 513b
000003a0: cff5 063b dd1d cdba 9858 1639 ae6f 2f3b
000003b0: 0680 4abb ef06 083b 5f9f a438 ceed 65bb
000003c0: 9284 963a 68c1 a6bc d8e2 a43b aede 2e3c
000003d0: d1cd bebc 56c1 5bbb 2616 bbbb c437 5fbc
000003e0: d362 3c3b c59c 0d3c 5ed6 103c 0a78 373b
000003f0: d93c c5bb f7f2 cd3b d74a 31bc 0a85 2cbc

fc2.bias f4 [4]
0.04901492 -0.0008182089 -0.075509585 -0.03064716
00000000: dec3 483d 127d 56ba c5a4 9abd c10f fbbc
