p2_continuous-control/checkpoint_actor.pth (torch_old, 61577 bytes, 4 tensors)

fc1.weight f4 [400, 33]
000000 01 c7 8d 3c 69 70 73 bc e3 81 4e 3d fd 2a c0 3c
       0.017306807 -0.014858344 0.05041684 0.023457998
000010 83 75 09 3c 54 d7 f5 3c 2c 81 11 bd e6 96 86 bc
       0.008389833 0.030009903 -0.03552358 -0.016429376
000020 ce 77 48 bb d2 8d a2 bc 36 73 04 3c 00 fe c6 bb
       -0.0030588987 -0.019843016 0.008084109 -0.0060727596
000030 85 79 29 3d 83 5a 0d bd 51 dd 22 bd 8e 14 9d bc
       0.041375656 -0.034510147 -0.039761845 -0.01917484
000040 2a ad 9c bc 7f 57 09 bd 28 d7 31 3d a8 c4 04 3d
       -0.01912554 -0.03353071 0.04341808 0.03241411
000050 ae 80 1e bd 98 37 c2 bb d3 90 31 bd 56 f8 22 3c
       -0.038696937 -0.0059270374 -0.043351006 0.009946903
000060 d1 92 0b bd a3 95 8f ba ca 98 14 3d 5f fd 0b 3d
       -0.034075562 -0.0010954629 0.036278524 0.03417718
000070 2d 32 09 bc af 5e 06 3d 81 a8 3c 3d 88 3a 52 bc
       -0.008373779 0.03280514 0.046059135 -0.012831338
000080 49 00 2d 3d ad 9d 4e 3d f4 ad ee bb bb c3 df bc
       0.0422366 0.05044334 -0.0072839204 -0.027315011
000090 ea c4 1c bc 17 81 49 bc b9 23 20 bc 0c b3 fa bc
       -0.009568432 -0.012298844 -0.009774142 -0.030602954
0000a0 6e 36 20 bd e9 97 2f 3d 30 d3 00 bc 0b 87 14 3d
       -0.03911441 0.042869482 -0.007862851 0.0362616
0000b0 bc 4c 25 bc 13 53 48 bc f6 63 07 bd 44 49 eb 3c
       -0.010089096 -0.012226838 -0.033054315 0.02872146
0000c0 e6 aa 5c bd 5d 7a b3 3c 0a 05 68 3c 10 31 00 3d
       -0.05387392 0.021908933 0.014161358 0.03129679
0000d0 b1 05 f4 bc 70 07 9f bc 73 69 34 3d 6b 41 8e bc
       -0.02978787 -0.019412726 0.044045877 -0.017365178
0000e0 fd 21 43 3d 95 34 a3 3b 88 0c 41 bd 02 18 d0 bc
       0.047639836 0.0049806335 -0.04713109 -0.025402073
0000f0 74 cd 36 3c 0f ba 90 bc e0 25 7b 3b 63 b9 41 3d
       0.011157382 -0.017666845 0.0038322136 0.04729594
000100 11 ac 31 3d dd 2e 3f 3d f2 d4 34 bd ec 51 44 bd
       0.043376986 0.04667555 -0.044148393 -0.04792969
000110 2b 02 0f bd 5c 3d 7c bc 6a 17 0e 3d fe aa fd bc
       -0.034914177 -0.015395489 0.0346903 -0.030965324
000120 7b 6e 43 3d 6f 17 d1 3c 09 41 8d 3c f2 28 02 3d
       0.047712784 0.02552387 0.017242925 0.03177733
000130 9b 2c 3d 3d e2 f5 eb 3c ce 4c 38 3d 19 fb 0f 3d
       0.046185117 0.02880377 0.04499512 0.035151575
000140 df 39 40 bd f0 c5 51 3c 2c 36 27 3c 70 1e 3e 3d
       -0.04693019 0.01280354 0.010205787 0.046415746
000150 b8 91 e0 bb 1b d6 bf bc d5 3c 95 bc a9 cf 06 bd
       -0.0068533085 -0.023417523 -0.018217484 -0.032912884
000160 03 12 20 3d 41 ba be bb 65 d4 3c bd 59 09 3d bd
       0.039079677 -0.005820543 -0.046100993 -0.046151493
000170 f5 4e e4 bc 2c 56 28 3c 60 d4 d8 3b d5 99 00 3d
       -0.02786968 0.010274451 0.006617114 0.031396706
000180 90 4b 2d bd 68 a6 88 bb 79 e6 05 bd b2 cb fe 3b
       -0.04230839 -0.004170228 -0.0326905 0.007775747
000190 83 d8 1a bd 43 3d ca 3c 68 40 3e bd f4 fe 05 3d
       -0.037804138 0.024687415 -0.04644814 0.032713845
0001a0 13 4f dd bc 5b 53 f6 3c 8a d9 8d 3c bc 63 a9 3c
       -0.027015245 0.030069044 0.017315645 0.02067744
0001b0 25 fa 37 3d 56 36 24 3d 05 aa 4d 3c 34 77 02 3d
       0.04491629 0.04009088 0.012552743 0.031851962
0001c0 87 43 5d bc 66 79 7f 3b 2b 71 b5 3c 88 0c 47 3c
       -0.013504869 0.0038982271 0.02214869 0.012148984
0001d0 75 7e d0 3c 53 8b 2a 3c ba 45 1b bc 19 0d 09 bb
       0.025450924 0.010409194 -0.009477073 -0.0020912348
0001e0 f2 f8 9c 3b 3e d8 7b bb 82 02 ff 3c 1a 64 2a 3d
       0.004790419 -0.003842845 0.031129126 0.04159937
0001f0 dd 56 46 3c 84 aa fc 3b e1 ab ea 3c cb 7c b0 bc
       0.012105671 0.0077107567 0.028646411 -0.02154388
000200 55 cf 1a bd ea 16 df bc 8a 85 ba 3c 96 28 4e bd
       -0.037795383 -0.027232606 0.022768755 -0.050331675
000210 40 87 2f 3c 16 dc 12 bc f9 b5 dd 3b 57 81 22 bd
       0.010713398 -0.008963605 0.0067660776 -0.03967413
000220 44 bc 0f bd f6 7c 38 bd c3 d8 a3 3c 97 b0 9e bc
       -0.035091653 -0.045041047 0.020000821 -0.019371314
000230 a8 51 04 3d e3 16 82 3c 45 b9 15 bc 82 db 93 3c
       0.032304436 0.015880054 -0.00913841 0.018049005
000240 09 e4 d2 3b f8 47 ef 3c e3 2a aa 3c 8f 2a 2b 3d
       0.0064358753 0.029209122 0.020772403 0.041788634
000250 71 51 86 3a 12 16 71 bc 0c d9 18 bd dd 91 24 bd
       0.001024766 -0.014714735 -0.037316367 -0.04017817
000260 5b 43 f2 bc d4 09 27 bc 54 60 51 3d 98 4d f8 3c
       -0.029573133 -0.010195214 0.051117256 0.030310437
000270 c6 cb 46 3d b0 9f 9d 3c ca 04 3c bd b1 75 9d 3a
       0.048534177 0.019241184 -0.045903005 0.0012013224
000280 91 c6 e6 39 97 49 0a 3d fb 10 d6 bc 70 11 cf bb
       0.00044016962 0.033761587 -0.026131144 -0.0063192174
000290 f0 ae 20 bd 55 81 a2 3c 7b 8b 0f 3d 39 55 05 3d
       -0.039229333 0.019837061 0.03504513 0.032551978
0002a0 b9 3d 9f 3c 26 67 d7 3c e2 8f d3 bc 8b d6 2a bd
       0.019438611 0.026294302 -0.025825445 -0.04170851
0002b0 a2 d5 33 bd 39 89 41 bb aa 16 22 3d 6b 15 23 bd
       -0.043904908 -0.0029531254 0.039572395 -0.039815348
0002c0 8c a5 cb 3c 58 9f 3b bd 9c aa 15 3d 4e c9 5c bc
       0.024859212 -0.04580626 0.03653966 -0.013475729
0002d0 2d 10 b7 bc 55 d8 af 3c 5d 1c 33 bd a6 97 06 bc
       -0.02234658 0.02146546 -0.04372822 -0.008214867
0002e0 e0 5a b5 3c a9 4e 26 bc fc 40 3a bd df 58 1b 3d
       0.02213806 -0.01015059 -0.04547213 0.03792655
0002f0 b1 d5 dc 3c f2 f2 a9 bc ea c1 ca 3c 19 ce 3e 3d
       0.026957365 -0.020745728 0.024750669 0.04658327
000300 f4 a6 c9 bc a1 9e 93 3c 91 d7 3f 3d 22 c2 0b 3c
       -0.024615742 0.018019976 0.04683644 0.008530172
000310 a1 c7 49 3d 83 c5 3d bd 8e 2c c3 3c 60 e8 6f 3c
       0.049262647 -0.04633094 0.023824956 0.014642805
000320 a0 9d 27 3d 8c 47 37 3d fb 69 c6 bc f8 bf b1 3a
       0.040921807 0.044745967 -0.024220457 0.001356124
000330 56 a7 c0 bc d2 c8 fd bc 84 77 35 bd 96 19 47 3d
       -0.023517292 -0.030979548 -0.044303432 0.048608385
000340 66 c9 42 bc 42 6d 16 3c 4e 76 93 3c 43 56 4b bd
       -0.011888837 0.0091813225 0.018000748 -0.049642812
000350 38 73 3f 3d 7d 11 bc 3c ce 03 fc 3c 22 66 a3 3c
       0.04674074 0.022957558 0.030763533 0.019946162
000360 cf a4 4f 3c 1f 33 dd bc ef 50 f7 bc 74 bf 51 3d
       0.012673571 -0.027001915 -0.03018996 0.051207975
000370 18 62 5c 3d 9f aa c8 bc da f2 ed 3b 9f e6 21 bd
       0.053804487 -0.024495421 0.007261616 -0.039526578
000380 9d 0d 44 3d a9 a3 58 bd 76 dd 0a bd f2 cf fc 3c
       0.047864545 -0.052890453 -0.033902608 0.030860875
000390 e2 29 a1 3c 10 52 85 3b e9 4e 29 bd 0b 9a 4b 3d
       0.019673292 0.0040686205 -0.04133502 0.049707454
0003a0 36 52 7d 3c da 4f 03 3d 3c 85 22 bb 0f 33 61 3b
       0.015461495 0.032058574 -0.0024798652 0.0034362709
0003b0 a7 d4 fd bc 24 58 3c bc 7c 61 4a 3c 39 5e 9a 3c
       -0.03098519 -0.011495624 0.012352344 0.018843757
0003c0 af d3 dd 3c 69 89 42 bd bd 67 cc bc 40 67 12 3d
       0.027078478 -0.047494326 -0.02495181 0.035742998
0003d0 46 3b 38 bc 4d 33 cc bb 0a 4c da bc c7 02 8d bc
       -0.011244601 -0.0062317015 -0.026647586 -0.017213238
0003e0 e6 30 da bc 8a 14 47 3d 5f 32 ef bc 95 74 59 3d
       -0.026634645 0.048603572 -0.029198823 0.053089697
0003f0 59 41 ff bc b6 8b 1f 3d 1a 0c cb 3c 71 e1 ca 3c
       -0.03115909 0.038951598 0.024786044 0.024765702

fc1.bias f4 [400]
000000 50 90 09 3e b8 93 57 bd 88 52 27 be 94 b5 0f 3b
       0.13433957 -0.05263111 -0.16340077 0.0021928297
000010 27 6b 0f be b8 17 c3 3d ed 8d 40 3d c8 5b 02 3e
       -0.14005719 0.09526008 0.04701035 0.12730324
000020 dc d0 50 bc cf ea fa bd 47 d0 13 3e 2d 37 f9 bd
       -0.012745108 -0.122518174 0.1443492 -0.12168727
000030 05 a5 e5 3d d3 20 e6 3c 33 73 6f 3d 96 39 03 be
       0.112131156 0.028091824 0.058459472 -0.12814936
000040 9f 3b 11 be ca 1b a5 bd d5 89 e4 bd cc b0 15 be
       -0.141829 -0.08061941 -0.11159102 -0.14618224
000050 ae a5 37 bd bd 56 29 3e 04 1c 0a 3e 6b 8c 23 3e
       -0.04483574 0.16536994 0.1348725 0.15971534
000060 35 e9 4a 3d b2 89 01 be 84 34 ee 3d c8 2a 33 3e
       0.04953881 -0.12650183 0.1163111 0.17496789
000070 83 8f dd bd 7f 84 02 ba 46 99 17 3d 23 2e cd 3d
       -0.10818388 -0.000497885 0.037011407 0.100185655
000080 56 85 3e 3c 5c 2d 2c be 7d 1b 86 bc 4e bd ec bd
       0.011628469 -0.16814178 -0.01637053 -0.115595445
000090 ea ca ca 3d ac 13 02 3e 64 0f 9e 3c 2c 0f 15 be
       0.09901984 0.12702817 0.019294448 -0.14556569
0000a0 4e b8 67 bd a0 6c 73 bd 34 97 ad 3d 19 4b e1 3d
       -0.05657225 -0.059429765 0.08476105 0.11000652
0000b0 40 63 eb 3d 3e dc 54 bd 05 51 98 3d 81 bf 22 bd
       0.1149354 -0.05196785 0.07437328 -0.039733414
0000c0 30 8a 63 3c 52 9f af 3b 9f e4 0b be 47 62 40 3d
       0.013887927 0.0053595686 -0.13661431 0.046968725
0000d0 61 5f d1 3b 39 5e 9b bc 78 7f 2c be 69 aa f2 bd
       0.006389544 -0.018965827 -0.168455 -0.118489094
0000e0 54 04 20 3e f3 09 29 be 5a e6 94 bd 73 e9 97 bd
       0.15626651 -0.16507702 -0.072704986 -0.07417574
0000f0 25 43 e5 3d 59 1d 09 bd 01 db 0c be 96 5a 0a 3e
       0.111944474 -0.033475254 -0.13755418 0.13511118
000100 99 c2 22 3e 15 fd dd 3c 61 f6 0d be f4 04 cd 3d
       0.15894546 0.027098218 -0.13863517 0.1001071
000110 a0 93 a5 3d c6 a0 e1 3c e9 ce 54 bc 82 58 19 3d
       0.08084798 0.027542483 -0.012988784 0.037437923
000120 ab 73 09 be 3e 8f 07 3e 37 76 01 bb de 4f 1f be
       -0.1342303 0.13238236 -0.00197543 -0.1555781
000130 30 86 11 3e fe 03 78 bd 41 28 9a 3c ef da a1 3d
       0.14211345 -0.060550682 0.018818023 0.079030864
000140 5b dc 2e 3d b9 3c 10 3e 4c 81 24 be a9 4d 42 3d
       0.042690616 0.14085664 -0.16064948 0.047437344
000150 40 32 88 3b 86 f1 b8 bb a1 d8 cb bd 98 a2 e4 bd
       0.004156381 -0.005644026 -0.09953428 -0.11163825
000160 3b 74 85 3d 3f c0 71 3c af 45 1a 3c e9 bd ce 3d
       0.0651631 0.014755308 0.009416028 0.10094816
000170 75 e9 de 3c 8f 0a 3a 3c 03 10 ef 3d fd 0c 8b 3a
       0.02721093 0.011355056 0.11672976 0.0010608729
000180 08 5b 2a 3e de 76 0e be 11 c0 ab 3d 45 9b 44 3d
       0.16636288 -0.13912532 0.08386243 0.04799964
000190 47 d1 b7 3c 28 0f 53 bd 8a 43 f3 bc 69 71 67 3d
       0.022438658 -0.051528126 -0.029695291 0.05650464
0001a0 0c 28 93 3c 44 45 0b be e8 32 19 be e9 78 b3 bd
       0.017963432 -0.13600641 -0.14960825 -0.08763296
0001b0 6b ff 2f be 8b b4 5e bd 02 a5 49 3d 39 2d c8 bd
       -0.17187278 -0.054371398 0.04922963 -0.097742505
0001c0 ee 84 f4 3c 3a 30 2c 3e 48 ea a2 bd 5f 97 27 3e
       0.029848542 0.16815272 -0.07954842 0.16366337
0001d0 0b f1 8b bb 95 0a 2a be 4b 75 2b bd 79 11 11 3d
       -0.004270678 -0.16605599 -0.041859906 0.035417054
0001e0 63 3e 10 3e 83 20 5a bd 22 05 f4 bd d7 58 1d 3e
       0.14086299 -0.05325366 -0.119150415 0.15365921
0001f0 07 e5 09 3d 47 ec 37 bd 1d e8 98 bd 5a 10 9d 3d
       0.033665683 -0.044903066 -0.07466147 0.076691344
000200 25 08 1a 3e 1c 00 d7 bb 5e fe 15 3d 9a 4d 34 3d
       0.1504217 -0.0065612923 0.036619537 0.04401932
000210 02 6e a8 bc 89 e7 bb 3d 1c 2a 2d 3e f1 c2 b1 3d
       -0.020560268 0.09175021 0.16910595 0.0867976
000220 3d a5 14 3e da cd 60 3d c0 92 ef bc 84 2d 52 3d
       0.14516158 0.054883815 -0.02924478 0.05131294
000230 c5 2a ce bd e7 37 55 bd 9f e6 07 3d 12 d3 74 3d
       -0.100667514 -0.052055266 0.03317892 0.059771605
000240 ac ea 08 be 47 9e 44 3d da 09 d2 3d 32 6b 09 be
       -0.1337077 0.048002508 0.10255785 -0.13419798
000250 17 cd 89 3d 7e 67 39 bd 13 50 ef 3d 6f 5e 31 3e
       0.06728571 -0.045264713 0.11685195 0.1732118
000260 f0 76 b9 3d 32 79 09 be 1e ff 84 3d 56 d1 a7 bd
       0.09055889 -0.13425139 0.06493972 -0.081942245
000270 fa f3 04 3e a8 62 81 3d 03 ec a5 3d be 3c 01 be
       0.12983695 0.06317645 0.08101656 -0.12620828
000280 e3 3e 2b be 0c cf d7 bd c0 d2 26 3e bf b8 ae 3d
       -0.16723208 -0.10537538 0.16291332 0.08531331
000290 33 77 47 3d 97 f7 0d be ac 28 55 bd 29 30 00 3c
       0.04869766 -0.1386398 -0.05204074 0.007823982
0002a0 84 f3 bd bc 4a c6 23 3e e5 db 28 be a6 50 df bc
       -0.023187406 0.1599361 -0.16490133 -0.027260136
0002b0 12 b9 f7 3d e1 05 ef 3d 6a dd 04 be e2 d7 a1 3d
       0.12095846 0.11671043 -0.12975088 0.079025045
0002c0 27 76 71 bc ff 2a dc bd 0b 83 48 bc 38 5b 02 be
       -0.014737642 -0.10750388 -0.012238274 -0.1273011
0002d0 40 7a 47 bd 28 67 34 3e 8a 88 17 be ca 6e 0c be
       -0.04870057 0.17617476 -0.1479818 -0.13714138
0002e0 53 c2 ce 3d 8e 77 db 3d 44 91 e7 bd 18 fc 28 bd
       0.10095658 0.107161626 -0.11307004 -0.04125604
0002f0 fe c9 43 3b fb 52 0d be 5a 9a 84 3c 81 f9 4e bd
       0.0029875035 -0.13801186 0.016186882 -0.050530914
000300 d9 59 4f bd bb a4 81 3d 5b f2 b1 bd 8b 8e 9e 3c
       -0.050622795 0.06330248 -0.08688804 0.01935508
000310 a1 23 26 3e ab ef 0a 3e fe 39 f7 3d b3 6f 17 3e
       0.16224529 0.13567989 0.12071608 0.14788704
000320 b5 95 7b bd 66 f8 22 3e 5d ce 27 be a2 a1 2d 3e
       -0.06142207 0.15915069 -0.16387315 0.1695619
000330 00 50 35 3e d3 4c c0 3d 09 ba 52 3c 38 6e 43 3d
       0.17706299 0.09389653 0.012861737 0.047712535
000340 55 76 a9 bd 92 57 cf bd 30 68 dd bd 8f 18 d4 3d
       -0.08274523 -0.101241246 -0.10810888 0.10356247
000350 a4 25 0a be 72 60 6d 3c f2 0f 84 3d f0 e3 04 be
       -0.13490921 0.014488326 0.06448354 -0.12977576
000360 76 4c fd bd e1 59 b0 3b 7e d0 12 be e3 07 e1 3c
       -0.123680994 0.005381808 -0.14337346 0.027469581
000370 13 1f f1 bd f8 18 ea bd 66 aa 96 bd 99 8a 2f 3d
       -0.11773505 -0.11430544 -0.0735672 0.042856786
000380 a2 26 45 bd dc 3d 1f be 55 d6 9b bd eb 85 5a bd
       -0.048132546 -0.15550941 -0.0760924 -0.05335037
000390 46 4e 0c 3e 01 b8 0a 3e 4b b4 7b 3c 31 3e 89 3d
       0.13701734 0.13546754 0.015362809 0.06701315
0003a0 39 af 30 be d2 b3 18 bc f8 3a b5 3d 8b 86 89 3d
       -0.17254342 -0.009320216 0.08849138 0.06715115
0003b0 3e 6b a1 bd 51 bb f2 3d e6 bc 89 3d 6d 2b da bd
       -0.07881783 0.11852134 0.06725483 -0.10652814
0003c0 d4 8d 45 3d 37 2a 0c be 99 28 df 3d 86 03 fb 3d
       0.04823096 -0.13687979 0.10896415 0.122565314
0003d0 c9 ac 77 bb eb 64 92 3d 48 32 ca bd ee ac a5 bd
       -0.0037792197 0.07148155 -0.09872872 -0.08089624
0003e0 d0 e9 ef bc 33 b4 f0 bd 6e 8b d4 bc 1e 48 70 3b
       -0.029286295 -0.1175312 -0.025945392 0.003666408
0003f0 86 f4 97 bd 3b e0 e8 3d f9 a1 73 3d 77 bf c2 3d
       -0.07419686 0.113708936 0.05948064 0.09509175

fc2.weight f4 [4, 400]
000000 e9 d7 c2 bb 45 3e 4c bb c6 24 8b bb e2 68 36 bb
       -0.0059461487 -0.0031165045 -0.004246327 -0.002783351
000010 d8 63 f8 ba ba 77 1f bb 15 06 12 bb bf 7c b8 bb
       -0.0018950654 -0.0024332837 -0.0022281457 -0.0056301053
000020 65 64 d2 bb 47 67 73 bb 20 63 ce bb 3d 69 c9 bb
       -0.0064206594 -0.0037140416 -0.0062984377 -0.0061465786
000030 5c b9 dd bb 95 cf 91 bb 9d 0e a7 ba 9c ce cd bb
       -0.0067664813 -0.0044497945 -0.0012745444 -0.0062807333
000040 3f 6e 9d bb e7 a7 17 bb 99 07 77 bb ef 04 f3 ba
       -0.004804402 -0.002314085 -0.0037693738 -0.0018540899
000050 51 62 cf bb 69 9f a1 bb eb b7 a1 ba 9a f6 bf bb
       -0.006328859 -0.0049323332 -0.0012338137 -0.0058582546
000060 a4 39 bd ba 30 f1 64 bb 2b 4f 83 bb 18 23 c2 bb
       -0.0014436734 -0.0034933798 -0.0040072403 -0.0059245937
000070 4b eb d0 ba b6 1e 14 bb 80 73 75 ba 47 11 2e bb
       -0.0015939263 -0.0022601313 -0.0009363219 -0.002656059
000080 60 16 73 bb 3a fa ce bb a0 95 c4 bb 18 2e 47 bb
       -0.0037092194 -0.0063164504 -0.005999282 -0.0030392464
000090 c1 ae 05 bb 2e 66 dd bb ff d4 ad bb 0a 85 bc bb
       -0.002039835 -0.0067565655 -0.005304932 -0.005753164
0000a0 7b fd 1b bb 98 41 82 bb e9 5d 95 bb 20 db c0 bb
       -0.002380221 -0.0039751045 -0.004558314 -0.0058854967
0000b0 f7 df f1 ba 00 94 37 ba b2 20 90 bb 76 37 c3 ba
       -0.0018453588 -0.000700295 -0.004398429 -0.0014893848
0000c0 8d 52 bd bb 3a e5 aa ba d1 65 dd ba 3c 99 a4 bb
       -0.005777663 -0.0013038286 -0.0016891306 -0.00502315
0000d0 b9 93 ba bb c6 d7 ca bb b5 e3 89 ba 0c 3e 52 bb
       -0.0056938794 -0.006190273 -0.0010520132 -0.003208044
0000e0 fb 0a 9c bb 2d 9b 9d bb 33 af b4 bb 88 b9 58 bb
       -0.004762051 -0.004809758 -0.0055140494 -0.003306957
0000f0 b7 36 c4 bb 51 69 c6 ba 0a 3a 51 ba 5f 1b 95 ba
       -0.005987968 -0.0015137588 -0.0007981366 -0.0011375955
000100 60 cd a4 bb 16 4b 88 bb 1b c3 10 bb 40 78 95 bb
       -0.0050293654 -0.0041593416 -0.0022088948 -0.004561454
000110 e2 fc b9 bb 3e 2d 40 bb c3 bb 1a bb 13 bd cf bb
       -0.005675898 -0.0029323841 -0.002361045 -0.006339678
000120 36 33 65 bb b7 07 b2 bb 14 a4 79 bb dd e3 a2 bb
       -0.003497315 -0.0054330486 -0.0038092183 -0.004971011
000130 d5 de 8c bb 43 72 64 bb d3 52 a6 bb 9b 40 f7 ba
       -0.0042990246 -0.0034858144 -0.0050757914 -0.0018863858
000140 39 e8 8f bb ea e6 79 bb f4 56 33 b9 ef 1b 3b ba
       -0.004391697 -0.003813202 -0.00017103163 -0.00071376463
000150 f7 39 d0 bb cb 28 c1 bb fb ac 5a bb a3 8f 3d b9
       -0.006354566 -0.0058947555 -0.0033367265 -0.00018077953
000160 d4 82 a6 bb 6c 64 56 ba 2a cb 2e bb 67 4f b0 bb
       -0.005081514 -0.0008178416 -0.0026671388 -0.0053805592
000170 86 e6 8d ba da 75 e3 ba c9 42 de bb 53 f4 0e bb
       -0.0010826148 -0.0017353848 -0.0067828638 -0.002181311
000180 49 d7 e0 ba 6b 5c 28 bb 9f 3d c2 bb a7 ab b3 bb
       -0.0017154004 -0.002568985 -0.005927756 -0.005483109
000190 91 fa cd bb cb 2b b3 ba df 1c d6 bb dd a4 aa bb
       -0.0062859734 -0.0013669668 -0.0065342034 -0.0052076415
0001a0 e0 69 86 ba 7b d5 c2 bb e2 85 95 ba f6 4f 06 bb
       -0.0010254942 -0.005945859 -0.0011407698 -0.0020494438
0001b0 1a 36 75 ba a7 6b 1c bb 9b 4d ca bb 93 08 d6 b9
       -0.000935407 -0.0023867877 -0.006173802 -0.0004082365
0001c0 b4 ac 6d bb 66 63 c1 b9 01 c0 1f 3b b2 78 f0 ba
       -0.003626627 -0.00036885886 0.0024375918 -0.0018346517
0001d0 3a 6d 9a bb 3e 80 b4 bb 94 de 9b bb 01 eb 5f bb
       -0.004712728 -0.0055084517 -0.004756758 -0.0034167173
0001e0 6a a1 73 bb 60 d2 4a bb 4c 03 33 ba c0 43 d7 ba
       -0.0037175068 -0.0030948147 -0.00068287994 -0.0016423389
0001f0 09 b5 6c bb 48 82 83 bb fb 36 aa bb 6c 89 92 ba
       -0.0036118648 -0.0040133335 -0.0051945425 -0.0011179871
000200 70 43 75 bb 9b fe a9 bb 87 d3 e0 ba 6e 5a 49 bb
       -0.003742423 -0.005187822 -0.0017152884 -0.0030724066
000210 9d c6 62 bb 89 f9 3b bb 42 39 a6 bb 8b e8 1c bb
       -0.0034603246 -0.002868267 -0.0050727436 -0.0023942317
000220 d4 15 d9 bb a8 70 ef ba b3 0c 74 bb 97 7a 89 ba
       -0.0066249166 -0.0018267827 -0.0037239015 -0.0010488805
000230 c4 90 23 ba f7 bf 4e bb 7a 8d 2d bb 11 35 c2 bb
       -0.00062395283 -0.0031547525 -0.0026482032 -0.005926736
000240 7b 08 06 bb 7f fc 59 ba e3 02 9f bb 80 16 a0 bb
       -0.0020451832 -0.0008315518 -0.004852639 -0.0048854947
000250 29 5e a0 ba aa c9 25 bb f9 ac 16 bb a9 f1 ae bb
       -0.0012235093 -0.0025297203 -0.0022991283 -0.0053388667
000260 ba 69 83 bb 98 db c4 bb 83 34 be bb a4 6e 55 bb
       -0.0040104063 -0.006007623 -0.0058045997 -0.0032567168
000270 89 49 b0 bb f6 92 86 bb 77 f2 df ba 01 33 38 bb
       -0.00537986 -0.0041068746 -0.001708581 -0.0028106573
000280 7b c6 b1 bb 2a d7 b4 ba 32 d1 3a bb 22 9e 7f bb
       -0.005425272 -0.0013797034 -0.0028506038 -0.0039004167
000290 b5 e0 49 bb e0 8c d0 b9 a2 c3 96 bb 68 be d5 b8
       -0.0030804102 -0.00039777812 -0.004600958 -0.000101920974
0002a0 6a ba 1d ba ca d8 a5 ba 8c 79 a7 bb 99 24 ae bb
       -0.00060168526 -0.0012653109 -0.005110925 -0.0053144214
0002b0 6a e5 b6 bb 71 6c a0 bb 95 c8 06 bb a1 d9 2d 39
       -0.0055815475 -0.0048957397 -0.0020566334 0.00016579639
0002c0 af ff aa bb 8e a4 ce bb 2d 80 ce bb ff 6b 0c bb
       -0.005218468 -0.0063062375 -0.006301901 -0.0021426675
0002d0 1e 33 6e bb ca 7a 1c bb ef b2 71 38 3c 13 1a bb
       -0.0036346386 -0.00238769 5.7625522e-05 -0.002351
0002e0 f6 a3 b7 bb 0d 55 b0 ba fe e0 28 bb cd 40 69 bb
       -0.0056042625 -0.0013453081 -0.0025768871 -0.0035591603
0002f0 71 b7 b5 bb 64 7e 20 bb 0f 17 a7 bb 7c ee de bb
       -0.0055455496 -0.0024489397 -0.0050991843 -0.006803332
000300 4c d4 23 bb 1b 52 c0 bb 8f 7d 6d ba 57 55 e0 bb
       -0.0024998365 -0.0058691627 -0.0009059542 -0.006846111
000310 ca 27 a1 bb 6a 99 8c bb 50 ab 27 bb d1 d2 0e bb
       -0.0049180733 -0.0042907493 -0.0025584288 -0.0021793137
000320 9b 18 9b bb 95 69 70 ba b9 ce ee b8 5f 15 9b bb
       -0.004733158 -0.00091710064 -0.000113872295 -0.0047327722
000330 27 b1 26 bb 1e 84 a0 bb b8 cf 18 bb 08 a4 c3 bb
       -0.002543518 -0.004898562 -0.002331717 -0.005970482
000340 45 9a de ba 2b 5a ce ba 8f 89 b3 bb cb 4b b4 bb
       -0.0016983232 -0.0015743425 -0.0054790447 -0.0055021993
000350 cb f1 e9 ba f1 95 92 b9 d0 5d 49 bb 25 17 25 bb
       -0.0017848549 -0.00027959005 -0.0030726083 -0.0025190797
000360 35 71 13 bb 4d f7 51 bb 89 30 e3 bb 65 fa bd bb
       -0.0022497897 -0.0032038272 -0.006933276 -0.0057976716
000370 ce 83 8c bb 5a c7 fd ba c6 8e de bb 8e 5d 1d bb
       -0.0042881733 -0.001936178 -0.0067919223 -0.0024012062
000380 3f 4b 1c bb b2 0f 1a bb 0a 38 95 bb f0 c5 46 bb
       -0.002384856 -0.002350789 -0.0045537995 -0.0030330382
000390 e9 de 05 bb 57 f9 0f bb 27 02 7e bb ec 66 95 ba
       -0.0020427054 -0.0021968686 -0.0038758607 -0.0011398471
0003a0 4e 91 aa ba 6f 9d 9d bb f7 3a 58 bb 75 69 c5 bb
       -0.0013013275 -0.0048100273 -0.003299413 -0.0060245343
0003b0 69 86 c5 bb 67 a7 c8 ba 53 30 a4 bb df be 98 bb
       -0.006027986 -0.0015308679 -0.0050106435 -0.0046614255
0003c0 ef 0d cf bb c0 29 0d ba 74 4a b0 ba 9c 81 35 bb
       -0.0063187997 -0.00053849444 -0.0013449923 -0.0027695661
0003d0 6c be 4d bb 7f e8 9d bb f3 73 77 bb 32 ca 60 ba
       -0.0031394018 -0.0048189755 -0.003775832 -0.00085750513
0003e0 99 2e e2 ba 5b 30 90 ba a5 96 74 bb 25 1e d5 ba
       -0.0017256319 -0.0011000739 -0.0037321236 -0.0016259594
0003f0 f6 61 bd bb 30 fb af ba 47 1e c3 ba 15 b6 66 ba
       -0.0057795 -0.00134263 -0.0014886343 -0.0008800936

fc2.bias f4 [4]
000000 2e 5e 37 3d b1 0a 27 bd 2b 96 55 bd 08 ce 26 3d
       0.04476755 -0.04078168 -0.052145164 0.04072383
