p2_continuous-control/checkpoint_critic.pth (torch_old, 435404 bytes, 7 tensors)

fcs1.weight f4 [256, 33]
0	0x8001fb94	-1.82085e-40
1	0x8001c254	-1.61547e-40
2	0x80008931	-4.9215e-41
3	0x800263da	-2.19491e-40
4	0x80016dc2	-1.31209e-40
5	0x8001addc	-1.54204e-40
6	0x800013cc	-7.102e-42
7	0x0000f47c	8.7704e-41
8	0x0000ae15	6.2449e-41
9	0x80020082	-1.83853e-40
10	0x00008d9f	5.0804e-41
11	0x8000622a	-3.5215e-41
12	0x800090c4	-5.1932e-41
13	0x00020a00	1.87258e-40
14	0x0001919c	1.4407e-40
15	0x80031295	-2.82172e-40
16	0x0001b29e	1.55911e-40
17	0x800055df	-3.0805e-41
18	0x80023cfc	-2.05548e-40
19	0x000027fc	1.4344e-41
20	0x0000759c	4.219e-41
21	0x8001149a	-9.9226e-41
22	0x80026424	-2.19595e-40
23	0x800151ed	-1.21225e-40
24	0x80010fbc	-9.748e-41
25	0x8001816d	-1.38265e-40
26	0x0001a1c7	1.4987e-40
27	0x80026bc2	-2.22327e-40
28	0x80013bb7	-1.13257e-40
29	0x00025f4e	2.1786e-40
30	0x80017208	-1.32742e-40
31	0x0000c737	7.1465e-41
32	0x80035163	-3.04703e-40
33	0x8000d94e	-7.7954e-41
34	0x8001e96d	-1.75573e-40
35	0x8000c5f8	-7.1018e-41
36	0x8001ad38	-1.53975e-40
37	0x00016e6d	1.31449e-40
38	0x0000da2e	7.8268e-41
39	0x80015c25	-1.24891e-40
40	0x0001535a	1.21736e-40
41	0x80029b22	-2.39322e-40
42	0x0000da06	7.8212e-41
43	0x00014c1e	1.19141e-40
44	0x80020193	-1.84236e-40
45	0x0001a84d	1.5221e-40
46	0x0000a080	5.7577e-41
47	0x80012def	-1.08313e-40
48	0x0000d0e8	7.4941e-41
49	0x8000b948	-6.6466e-41
50	0x80004129	-2.3375e-41
51	0x0000584c	3.1675e-41
52	0x8001380f	-1.11946e-40
53	0x800196f7	-1.45991e-40
54	0x0000a417	5.8864e-41
55	0x00018a20	1.41385e-40
56	0x0001f3fb	1.79359e-40
57	0x8000188a	-8.803e-42
58	0x80018458	-1.39311e-40
59	0x0002000b	1.83686e-40
60	0x80023f9c	-2.0649e-40
61	0x8001caa4	-1.64529e-40
62	0x000008a7	3.104e-42
63	0x00014c70	1.19256e-40
64	0x0001f933	1.81231e-40
65	0x8001311b	-1.09451e-40
66	0x0002c240	2.53355e-40
67	0x80002e05	-1.6509e-41
68	0x0002711c	2.24247e-40
69	0x00026197	2.1868e-40
70	0x00026bf5	2.22399e-40
71	0x00019b24	1.4749e-40
72	0x0001a25c	1.50079e-40
73	0x8002c6c3	-2.54973e-40
74	0x00019c3a	1.47879e-40
75	0x00015062	1.20671e-40
76	0x80008c60	-5.0357e-41
77	0x0002036b	1.84897e-40
78	0x00006bd0	3.8676e-41
79	0x800026e2	-1.3949e-41
80	0x8000e730	-8.2934e-41
81	0x00015433	1.2204e-40
82	0x80022b17	-1.99129e-40
83	0x00020644	1.85919e-40
84	0x8000a5cb	-5.9475e-41
85	0x0002880c	2.32475e-40
86	0x00019278	1.44379e-40
87	0x000142b2	1.15761e-40
88	0x80005f45	-3.4176e-41
89	0x0001525f	1.21385e-40
90	0x0001e710	1.74725e-40
91	0x000195d9	1.45591e-40
92	0x8001382a	-1.11983e-40
93	0x80017f33	-1.37466e-40
94	0x00039a04	3.30757e-40
95	0x8001dcb9	-1.71016e-40
96	0x00020c0a	1.8799e-40
97	0x8002093c	-1.86984e-40
98	0x000070f9	4.0527e-41
99	0x000110e3	9.7893e-41
100	0x00022e5c	2.00302e-40
101	0x80014b66	-1.18883e-40
102	0x00017a55	1.3572e-40
103	0x00022790	1.97863e-40
104	0x000003f6	1.421e-42
105	0x00030940	2.78825e-40
106	0x80025fba	-2.18011e-40
107	0x0001b5d5	1.57065e-40
108	0x80013072	-1.09214e-40
109	0x0000e092	8.056e-41
110	0x000030fc	1.7572e-41
111	0x80005e88	-3.3911e-41
112	0x8001b85e	-1.57974e-40
113	0x80021bad	-1.93599e-40
114	0x8000c9b2	-7.2355e-41
115	0x00027fdd	2.2954e-40
116	0x80019d96	-1.48367e-40
117	0x8001f9fd	-1.81514e-40
118	0x8002161b	-1.91601e-40
119	0x0001c31d	1.61829e-40
120	0x8002be47	-2.5193e-40
121	0x8002355a	-2.0281e-40
122	0x80019ebc	-1.48779e-40
123	0x8001e4e4	-1.73946e-40
124	0x00018ee4	1.43095e-40
125	0x0000d23e	7.542e-41
126	0x00014b77	1.18907e-40
127	0x0000829a	4.6851e-41
128	0x00009cbe	5.6229e-41
129	0x80024b88	-2.10766e-40
130	0x8001aec9	-1.54537e-40
131	0x0000ef86	8.5925e-41
132	0x00000d41	4.755e-42
133	0x80019bf0	-1.47775e-40
134	0x0000d899	7.77e-41
135	0x80023326	-2.0202e-40
136	0x8001976d	-1.46157e-40
137	0x8001a9ca	-1.52744e-40
138	0x0001d79d	1.69183e-40
139	0x00003edc	2.255e-41
140	0x8002526d	-2.1324e-40
141	0x00021416	1.90876e-40
142	0x8002a542	-2.42954e-40
143	0x8001fe11	-1.82977e-40
144	0x0001c713	1.6325e-40
145	0x8002bbdb	-2.51061e-40
146	0x80023743	-2.03495e-40
147	0x8000a8ca	-6.055e-41
148	0x000169a3	1.29731e-40
149	0x80024c71	-2.11093e-40
150	0x000158f7	1.2375e-40
151	0x8001dad0	-1.7033e-40
152	0x8000d93b	-7.7928e-41
153	0x00011a96	1.01373e-40
154	0x000062e2	3.5472e-41
155	0x8001f9f3	-1.815e-40
156	0x0000076e	2.665e-42
157	0x0000e2c5	8.135e-41
158	0x80029a2b	-2.38976e-40
159	0x80001397	-7.028e-42
160	0x8002042b	-1.85166e-40
161	0x00014544	1.16683e-40
162	0x00010781	9.4527e-41
163	0x0002713a	2.24289e-40
164	0x00012ecd	1.08624e-40
165	0x80013bf3	-1.13341e-40
166	0x80003ee8	-2.2567e-41
167	0x0000ccaa	7.342e-41
168	0x80013bc8	-1.13281e-40
169	0x00014333	1.15942e-40
170	0x0000e6f4	8.285e-41
171	0x80013b09	-1.13013e-40
172	0x800278f7	-2.27065e-40
173	0x0001d062	1.66589e-40
174	0x80019aa3	-1.47309e-40
175	0x8002a734	-2.43652e-40
176	0x80002fed	-1.7193e-41
177	0x00005afc	3.2639e-41
178	0x0001129f	9.8515e-41
179	0x00013045	1.09151e-40
180	0x0001b861	1.57978e-40
181	0x000143c6	1.16148e-40
182	0x8001a124	-1.49642e-40
183	0x8001a118	-1.49625e-40
184	0x8000c3af	-7.0198e-41
185	0x000089d2	4.944e-41
186	0x8001d12d	-1.66874e-40
187	0x00013408	1.10501e-40
188	0x80034c51	-3.02884e-40
189	0x80004906	-2.6196e-41
190	0x0002dca1	2.62818e-40
191	0x0001408f	1.14995e-40
192	0x8002198c	-1.92835e-40
193	0x000019d0	9.26e-42
194	0x80014242	-1.15604e-40
195	0x00013f84	1.1462e-40
196	0x80017e93	-1.37242e-40
197	0x00012792	1.0603e-40
198	0x00014d6c	1.19609e-40
199	0x00026494	2.19752e-40
200	0x0000d071	7.4775e-41
201	0x800152ca	-1.21535e-40
202	0x8000d6d0	-7.706e-41
203	0x80017afd	-1.35955e-40
204	0x8001e087	-1.72381e-40
205	0x00021a93	1.93204e-40
206	0x000057af	3.1455e-41
207	0x000033d3	1.8591e-41
208	0x80001ebe	-1.1028e-41
209	0x000107b7	9.4603e-41
210	0x0001879e	1.40486e-40
211	0x00000e94	5.23e-42
212	0x0000b9b4	6.6618e-41
213	0x8002dc3a	-2.62673e-40
214	0x80011fa7	-1.0319e-40
215	0x0001c1a1	1.61296e-40
216	0x00014477	1.16396e-40
217	0x80025198	-2.12941e-40
218	0x0000e583	8.2333e-41
219	0x0001df39	1.71913e-40
220	0x8000a3fa	-5.8824e-41
221	0x800042e3	-2.3994e-41
222	0x00020f6e	1.89206e-40
223	0x80004869	-2.5976e-41
224	0x8002b062	-2.46945e-40
225	0x0000081f	2.913e-42
226	0x800053ab	-3.0014e-41
227	0x8001458f	-1.16788e-40
228	0x00023697	2.03254e-40
229	0x0001fe93	1.8316e-40
230	0x800031d9	-1.7882e-41
231	0x800096d3	-5.4106e-41
232	0x0002cfc7	2.58207e-40
233	0x80011af1	-1.015e-40
234	0x80019213	-1.44237e-40
235	0x8000e4fd	-8.2146e-41
236	0x80001bb6	-9.941e-42
237	0x800123a7	-1.04625e-40
238	0x0001df9b	1.7205e-40
239	0x8000287d	-1.4524e-41
240	0x00011e22	1.02645e-40
241	0x80007167	-4.0681e-41
242	0x8000998e	-5.5085e-41
243	0x8001e6c7	-1.74623e-40
244	0x8001dcb8	-1.71014e-40
245	0x8001693b	-1.29585e-40
246	0x000188f5	1.40966e-40
247	0x00005ce0	3.3317e-41
248	0x8001979b	-1.46221e-40
249	0x000148e0	1.17978e-40
250	0x8001be35	-1.60069e-40
251	0x000117c0	1.00355e-40
252	0x0001a35c	1.50438e-40
253	0x00013466	1.10633e-40
254	0x0001f2d4	1.78946e-40
255	0x00023910	2.04141e-40

fcs1.bias f4 [256]
0	0x800055af	-3.0737e-41
1	0x80014052	-1.14909e-40
2	0x8000e696	-8.2719e-41
3	0x80031ab1	-2.85082e-40
4	0x80000caa	-4.543e-42
5	0x00028da5	2.34483e-40
6	0x8001e404	-1.73632e-40
7	0x800054d7	-3.0435e-41
8	0x0001e685	1.7453e-40
9	0x8000691e	-3.7709e-41
10	0x0001e337	1.73345e-40
11	0x8003643f	-3.11468e-40
12	0x00004038	2.3037e-41
13	0x0002bdc0	2.5174e-40
14	0x80000e85	-5.209e-42
15	0x00029f04	2.40715e-40
16	0x800047d3	-2.5766e-41
17	0x00009332	5.2804e-41
18	0x00018bc0	1.41968e-40
19	0x0001ce00	1.65734e-40
20	0x80010a21	-9.5469e-41
21	0x0000ffa0	9.1701e-41
22	0x0001ac2e	1.53602e-40
23	0x000214ca	1.91129e-40
24	0x000217cd	1.92209e-40
25	0x80020ed3	-1.88989e-40
26	0x800174d9	-1.33753e-40
27	0x00004314	2.4063e-41
28	0x800079c6	-4.3684e-41
29	0x00013de9	1.14045e-40
30	0x00015581	1.22509e-40
31	0x00008b80	5.0043e-41
32	0x0001c6f4	1.63206e-40
33	0x800038cd	-2.0376e-41
34	0x0000c29d	6.9814e-41
35	0x00013450	1.10602e-40
36	0x00008807	4.8797e-41
37	0x80014ed0	-1.20108e-40
38	0x80009845	-5.4624e-41
39	0x00018ff1	1.43472e-40
40	0x00009896	5.4738e-41
41	0x000178c6	1.35161e-40
42	0x80000f56	-5.501e-42
43	0x8000a76a	-6.0057e-41
44	0x00008f9a	5.1515e-41
45	0x80016bc8	-1.305e-40
46	0x00006fc0	4.0088e-41
47	0x8001eeb9	-1.77473e-40
48	0x80000a82	-3.77e-42
49	0x800291b5	-2.35941e-40
50	0x8000b92d	-6.6429e-41
51	0x0001be2a	1.60054e-40
52	0x8000f093	-8.6302e-41
53	0x8001418e	-1.15352e-40
54	0x8001493b	-1.18106e-40
55	0x00007e1a	4.5237e-41
56	0x00017117	1.32404e-40
57	0x80026ace	-2.21985e-40
58	0x80003fa9	-2.2837e-41
59	0x8001f8bb	-1.81063e-40
60	0x800121a1	-1.03899e-40
61	0x0000a8e2	6.0584e-41
62	0x8000fd90	-9.0961e-41
63	0x8001f7a2	-1.8067e-40
64	0x00021a07	1.93008e-40
65	0x00017fff	1.37752e-40
66	0x8001ec3a	-1.76578e-40
67	0x8000fb12	-9.0067e-41
68	0x0001ad88	1.54087e-40
69	0x8000d961	-7.7981e-41
70	0x80034959	-3.01819e-40
71	0x8001b11d	-1.55372e-40
72	0x80035f6b	-3.09736e-40
73	0x0001addb	1.54203e-40
74	0x0000bc18	6.7475e-41
75	0x0000878b	4.8624e-41
76	0x8001adc9	-1.54178e-40
77	0x00012830	1.06252e-40
78	0x000310f2	2.81585e-40
79	0x0001967f	1.45823e-40
80	0x80018311	-1.38853e-40
81	0x8001627c	-1.27165e-40
82	0x80007fd1	-4.5852e-41
83	0x800292f4	-2.36388e-40
84	0x00013f10	1.14458e-40
85	0x0002412f	2.07054e-40
86	0x000051e4	2.9377e-41
87	0x80010dab	-9.6739e-41
88	0x0001d932	1.6975e-40
89	0x00027885	2.26905e-40
90	0x0000fc93	9.0607e-41
91	0x800233b8	-2.02224e-40
92	0x8001f1fd	-1.78645e-40
93	0x80018d24	-1.42467e-40
94	0x0000a25a	5.8241e-41
95	0x80030c95	-2.8002e-40
96	0x80023ce3	-2.05513e-40
97	0x8002c983	-2.5596e-40
98	0x8000920f	-5.2396e-41
99	0x00018c0c	1.42075e-40
100	0x0000f03d	8.6181e-41
101	0x00031c39	2.85631e-40
102	0x0000adaf	6.2306e-41
103	0x00024e5a	2.11778e-40
104	0x800231c7	-2.01528e-40
105	0x0001e09c	1.7241e-40
106	0x8000acaa	-6.194e-41
107	0x00013fed	1.14768e-40
108	0x0000a81e	6.0309e-41
109	0x8000371b	-1.9768e-41
110	0x800195ae	-1.4553e-40
111	0x8001310a	-1.09427e-40
112	0x8001d435	-1.67961e-40
113	0x8001b141	-1.55422e-40
114	0x0002ad19	2.45767e-40
115	0x8002e90d	-2.67274e-40
116	0x0001ca62	1.64437e-40
117	0x000110f4	9.7917e-41
118	0x80017b64	-1.361e-40
119	0x000067c9	3.7231e-41
120	0x0000f27a	8.6984e-41
121	0x00023ceb	2.05524e-40
122	0x8000da07	-7.8213e-41
123	0x00003d10	2.1905e-41
124	0x0002871d	2.3214e-40
125	0x80007a47	-4.3865e-41
126	0x00014f94	1.20383e-40
127	0x8001f1b4	-1.78542e-40
128	0x0001fbf5	1.8222e-40
129	0x80026df5	-2.23116e-40
130	0x0001d48f	1.68087e-40
131	0x000174eb	1.33778e-40
132	0x00027af7	2.27782e-40
133	0x8000b735	-6.5722e-41
134	0x8001baa1	-1.58785e-40
135	0x80028075	-2.29753e-40
136	0x80005c2a	-3.3062e-41
137	0x000257a6	2.15113e-40
138	0x00002f94	1.7068e-41
139	0x8000197b	-9.14e-42
140	0x00028d9c	2.34471e-40
141	0x000063fc	3.5868e-41
142	0x800209cb	-1.87184e-40
143	0x00014d9e	1.19679e-40
144	0x0002650c	2.1992e-40
145	0x800230b7	-2.01147e-40
146	0x80010dc5	-9.6775e-41
147	0x0001e2d2	1.73203e-40
148	0x0000804b	4.6023e-41
149	0x00015dd5	1.25496e-40
150	0x00029f44	2.40805e-40
151	0x00033583	2.94703e-40
152	0x0000bd05	6.7807e-41
153	0x0001cdf0	1.65712e-40
154	0x0000a743	6.0002e-41
155	0x000071fb	4.0888e-41
156	0x80004722	-2.5518e-41
157	0x8001a1ee	-1.49925e-40
158	0x00001aba	9.588e-42
159	0x0001a1ea	1.4992e-40
160	0x0001992a	1.4678e-40
161	0x0001ba67	1.58704e-40
162	0x0001ff6f	1.83468e-40
163	0x80014f3b	-1.20258e-40
164	0x80017d94	-1.36884e-40
165	0x0002999d	2.38777e-40
166	0x8000eb6f	-8.4458e-41
167	0x8001b839	-1.57922e-40
168	0x0002d3d8	2.59666e-40
169	0x0001daab	1.70279e-40
170	0x0001c5f8	1.62853e-40
171	0x80004283	-2.386e-41
172	0x0000d6a2	7.6996e-41
173	0x80008b1d	-4.9904e-41
174	0x8000cd6d	-7.3693e-41
175	0x00010ddf	9.6812e-41
176	0x00024ed3	2.11948e-40
177	0x8001630e	-1.2737e-40
178	0x00025753	2.14997e-40
179	0x0000346a	1.8803e-41
180	0x0000f40b	8.7546e-41
181	0x000206b6	1.86078e-40
182	0x0000a8c6	6.0545e-41
183	0x0001d3d3	1.67824e-40
184	0x00011476	9.9175e-41
185	0x80012bec	-1.07592e-40
186	0x0001268b	1.05662e-40
187	0x00013622	1.11255e-40
188	0x00013bb5	1.13254e-40
189	0x00016774	1.28947e-40
190	0x80009d9f	-5.6544e-41
191	0x8001876b	-1.40414e-40
192	0x8000694a	-3.777e-41
193	0x00014c7a	1.1927e-40
194	0x00008709	4.8441e-41
195	0x0000b3b6	6.4468e-41
196	0x80021f28	-1.94848e-40
197	0x00019afb	1.47432e-40
198	0x80020add	-1.87568e-40
199	0x00010388	9.3102e-41
200	0x80005f71	-3.4238e-41
201	0x80014b57	-1.18862e-40
202	0x8000c52c	-7.0732e-41
203	0x0002e7ad	2.6678e-40
204	0x00028728	2.32156e-40
205	0x800369f4	-3.13515e-40
206	0x80035441	-3.05731e-40
207	0x80003a6e	-2.096e-41
208	0x0000aa1a	6.1021e-41
209	0x80022367	-1.96371e-40
210	0x00013ed4	1.14374e-40
211	0x80012568	-1.05254e-40
212	0x00011b84	1.01706e-40
213	0x000290ac	2.3557e-40
214	0x0001758a	1.34e-40
215	0x000144d0	1.16521e-40
216	0x8001caa5	-1.6453e-40
217	0x8001ed32	-1.76925e-40
218	0x0000d68c	7.6965e-41
219	0x8001ddf0	-1.71452e-40
220	0x8002429b	-2.07565e-40
221	0x8001e6ad	-1.74586e-40
222	0x000285c8	2.31663e-40
223	0x8000aacd	-6.1272e-41
224	0x0000c924	7.2156e-41
225	0x00015e4d	1.25664e-40
226	0x00014145	1.1525e-40
227	0x8000c403	-7.0316e-41
228	0x00003ff2	2.2939e-41
229	0x0000c6f7	7.1375e-41
230	0x80023a9d	-2.04697e-40
231	0x8001b37a	-1.5622e-40
232	0x80023899	-2.03974e-40
233	0x8000242e	-1.2979e-41
234	0x00017858	1.35007e-40
235	0x0002aa22	2.44703e-40
236	0x0001e168	1.72696e-40
237	0x000194d5	1.45226e-40
238	0x8000a272	-5.8274e-41
239	0x80018b80	-1.41879e-40
240	0x8000a856	-6.0388e-41
241	0x00012fd2	1.0899e-40
242	0x80006124	-3.4847e-41
243	0x0000ff65	9.1618e-41
244	0x8001640b	-1.27724e-40
245	0x80012d8a	-1.08172e-40
246	0x00017f5e	1.37526e-40
247	0x8001297e	-1.0672e-40
248	0x8000baad	-6.6967e-41
249	0x00000461	1.571e-42
250	0x0002093c	1.86984e-40
251	0x8002e2d8	-2.65047e-40
252	0x00015d9b	1.25415e-40
253	0x00009917	5.4918e-41
254	0x000110e7	9.7899e-41
255	0x8001b801	-1.57844e-40

fc2.weight f4 [256, 260]
0	0x0001db74	1.7056e-40
1	0x80024e62	-2.1179e-40
2	0x80029a19	-2.38951e-40
3	0x0001288e	1.06384e-40
4	0x00006e9a	3.9676e-41
5	0x8000889c	-4.9006e-41
6	0x8000d846	-7.7584e-41
7	0x00018f75	1.43298e-40
8	0x00009d30	5.6388e-41
9	0x0003aaea	3.36819e-40
10	0x00023cf8	2.05542e-40
11	0x000053b4	3.0027e-41
12	0x8000fc6f	-9.0556e-41
13	0x8001741d	-1.33489e-40
14	0x800125d2	-1.05403e-40
15	0x8002df86	-2.63856e-40
16	0x0002a3b2	2.42394e-40
17	0x000101b4	9.2446e-41
18	0x00010fef	9.7551e-41
19	0x800200b6	-1.83926e-40
20	0x800143d7	-1.16172e-40
21	0x00022124	1.9556e-40
22	0x00002855	1.4468e-41
23	0x80008e2e	-5.1004e-41
24	0x00001cac	1.0286e-41
25	0x8000dd94	-7.9487e-41
26	0x0002898e	2.33016e-40
27	0x800255e8	-2.14488e-40
28	0x0001dadd	1.70349e-40
29	0x00006df3	3.9442e-41
30	0x8002a5bf	-2.4313e-40
31	0x00025383	2.1363e-40
32	0x0000b403	6.4576e-41
33	0x0001cb9a	1.64874e-40
34	0x8002e50f	-2.65842e-40
35	0x80008905	-4.9153e-41
36	0x80013fdf	-1.14748e-40
37	0x8001cc6b	-1.65167e-40
38	0x8002841b	-2.31062e-40
39	0x800164dd	-1.28018e-40
40	0x00023c8a	2.05388e-40
41	0x000190dd	1.43803e-40
42	0x000181c5	1.38388e-40
43	0x0001621b	1.27029e-40
44	0x00026078	2.18277e-40
45	0x800274af	-2.25529e-40
46	0x00017695	1.34375e-40
47	0x80001e60	-1.0896e-41
48	0x00019281	1.44391e-40
49	0x8000028d	-9.15e-43
50	0x80008385	-4.718e-41
51	0x80021b24	-1.93407e-40
52	0x00014aa6	1.18614e-40
53	0x8002f75e	-2.7241e-40
54	0x0000df2c	8.0059e-41
55	0x8000cf67	-7.4402e-41
56	0x0000c7d1	7.168e-41
57	0x0001886b	1.40773e-40
58	0x8000bdcd	-6.8088e-41
59	0x8001e0a2	-1.72419e-40
60	0x0001d138	1.66889e-40
61	0x00027721	2.26406e-40
62	0x8002ad60	-2.45866e-40
63	0x80027899	-2.26933e-40
64	0x800149e9	-1.1835e-40
65	0x0001400c	1.14811e-40
66	0x8001a81d	-1.52143e-40
67	0x0002897d	2.32992e-40
68	0x8000add6	-6.236e-41
69	0x80026f80	-2.2367e-40
70	0x800024e2	-1.3231e-41
71	0x80029cc8	-2.39914e-40
72	0x00027656	2.26122e-40
73	0x800154e0	-1.22283e-40
74	0x0000409f	2.3182e-41
75	0x8000ee75	-8.5542e-41
76	0x80005080	-2.8878e-41
77	0x0001c27d	1.61605e-40
78	0x80018d03	-1.42421e-40
79	0x0001d0b8	1.6671e-40
80	0x8001f532	-1.79795e-40
81	0x800212d5	-1.90427e-40
82	0x0001a978	1.5263e-40
83	0x0001464a	1.1705e-40
84	0x0000e5b8	8.2408e-41
85	0x80009eca	-5.6963e-41
86	0x0000fcd9	9.0705e-41
87	0x8001948b	-1.45123e-40
88	0x80010a46	-9.5521e-41
89	0x000166f1	1.28764e-40
90	0x800023b3	-1.2806e-41
91	0x000279a8	2.27313e-40
92	0x0001b54d	1.56874e-40
93	0x80015a30	-1.24189e-40
94	0x00012e20	1.08382e-40
95	0x8000e757	-8.2989e-41
96	0x000204f8	1.85453e-40
97	0x80026dc2	-2.23045e-40
98	0x8000fb36	-9.0118e-41
99	0x00032684	2.89323e-40
100	0x8002dc80	-2.62771e-40
101	0x8001769d	-1.34386e-40
102	0x00010844	9.48e-41
103	0x800167a2	-1.29012e-40
104	0x8001cf5f	-1.66226e-40
105	0x80000a15	-3.617e-42
106	0x8002725b	-2.24694e-40
107	0x8001452a	-1.16647e-40
108	0x0001b481	1.56588e-40
109	0x80011c41	-1.01971e-40
110	0x8001f173	-1.78451e-40
111	0x00013024	1.09105e-40
112	0x00000ee5	5.343e-42
113	0x800196c3	-1.45919e-40
114	0x80003f2d	-2.2663e-41
115	0x8002761c	-2.2604e-40
116	0x00011d31	1.02307e-40
117	0x8000dac5	-7.848e-41
118	0x8001ee4a	-1.77318e-40
119	0x80028c8d	-2.34091e-40
120	0x0001a7f7	1.5209e-40
121	0x800079e3	-4.3725e-41
122	0x800007c5	-2.787e-42
123	0x0000053a	1.875e-42
124	0x80034f96	-3.04057e-40
125	0x0000c6f0	7.1365e-41
126	0x000105ac	9.387e-41
127	0x00016b6e	1.30374e-40
128	0x8003a96c	-3.36284e-40
129	0x0001ebad	1.7638e-40
130	0x000311b9	2.81864e-40
131	0x00006256	3.5276e-41
132	0x800170e7	-1.32337e-40
133	0x80024298	-2.0756e-40
134	0x00012a62	1.0704e-40
135	0x00020c8d	1.88173e-40
136	0x000365e7	3.12062e-40
137	0x0000ca12	7.2489e-41
138	0x0000b0d6	6.3437e-41
139	0x00025491	2.14008e-40
140	0x0000aa59	6.1109e-41
141	0x80027998	-2.2729e-40
142	0x8000e663	-8.2647e-41
143	0x8002a435	-2.42577e-40
144	0x80010824	-9.4756e-41
145	0x80005a5a	-3.2412e-41
146	0x00013392	1.10335e-40
147	0x000208aa	1.86779e-40
148	0x00018479	1.39358e-40
149	0x00019703	1.46008e-40
150	0x80003909	-2.046e-41
151	0x80003301	-1.8297e-41
152	0x80034827	-3.0139e-40
153	0x8000d071	-7.4775e-41
154	0x80002b5c	-1.5554e-41
155	0x80020e0e	-1.88713e-40
156	0x00031a28	2.8489e-40
157	0x000063e0	3.5828e-41
158	0x80015e10	-1.25579e-40
159	0x8000fc65	-9.0542e-41
160	0x80018cbf	-1.42326e-40
161	0x80018326	-1.38883e-40
162	0x00002ede	1.6813e-41
163	0x00005551	3.0606e-41
164	0x8000746f	-4.1769e-41
165	0x80013686	-1.11395e-40
166	0x800012a7	-6.691e-42
167	0x00001358	6.939e-42
168	0x8001768a	-1.3436e-40
169	0x00013502	1.10851e-40
170	0x800189a1	-1.41207e-40
171	0x00011083	9.7759e-41
172	0x000052cd	2.9703e-41
173	0x0000772d	4.2752e-41
174	0x0001aef3	1.54595e-40
175	0x0002f64f	2.7203e-40
176	0x0000047e	1.611e-42
177	0x8001a2bd	-1.50215e-40
178	0x80029aef	-2.3925e-40
179	0x8000307e	-1.7396e-41
180	0x00001b68	9.832e-42
181	0x0002d238	2.59083e-40
182	0x800298a5	-2.3843e-40
183	0x8000914f	-5.2127e-41
184	0x00009d3c	5.6405e-41
185	0x8001d097	-1.66663e-40
186	0x800138ba	-1.12185e-40
187	0x80014644	-1.17042e-40
188	0x8000948b	-5.3287e-41
189	0x0001fd03	1.82599e-40
190	0x80029c9a	-2.39849e-40
191	0x00012e49	1.0844e-40
192	0x800206ba	-1.86084e-40
193	0x80005336	-2.985e-41
194	0x000357c0	3.06985e-40
195	0x8002785a	-2.26845e-40
196	0x0000c35d	7.0083e-41
197	0x00010a1f	9.5466e-41
198	0x0001b5ea	1.57094e-40
199	0x80011727	-1.00141e-40
200	0x00024aa6	2.1045e-40
201	0x000146af	1.17192e-40
202	0x800064e8	-3.6198e-41
203	0x0000b35f	6.4346e-41
204	0x00013ca6	1.13592e-40
205	0x800262cd	-2.19114e-40
206	0x80019d2b	-1.48217e-40
207	0x800026a9	-1.3869e-41
208	0x800225df	-1.97257e-40
209	0x80012392	-1.04596e-40
210	0x0000bad0	6.7016e-41
211	0x00005434	3.0206e-41
212	0x8002ccaa	-2.5709e-40
213	0x00019ba3	1.47667e-40
214	0x80003f59	-2.2725e-41
215	0x0002b3e5	2.48205e-40
216	0x8002e0b3	-2.64278e-40
217	0x0000bfa2	6.8745e-41
218	0x8001d0cf	-1.66742e-40
219	0x00009d72	5.6481e-41
220	0x8001fdc8	-1.82875e-40
221	0x8001bc0a	-1.59291e-40
222	0x80011c29	-1.01937e-40
223	0x80011969	-1.00951e-40
224	0x0000e92b	8.3645e-41
225	0x00026225	2.18879e-40
226	0x80010b4d	-9.589e-41
227	0x00016938	1.29581e-40
228	0x800006c0	-2.421e-42
229	0x80016370	-1.27507e-40
230	0x0000bffd	6.8872e-41
231	0x0000768b	4.2525e-41
232	0x00009a5e	5.5377e-41
233	0x80009b0f	-5.5625e-41
234	0x0002a0db	2.41375e-40
235	0x8001f061	-1.78067e-40
236	0x0001119f	9.8157e-41
237	0x00025655	2.14641e-40
238	0x00015eed	1.25888e-40
239	0x00003cf8	2.1871e-41
240	0x00020c5f	1.88109e-40
241	0x8000ab7e	-6.152e-41
242	0x8000886b	-4.8938e-41
243	0x00013e1e	1.14119e-40
244	0x0000d964	7.7985e-41
245	0x80021a2c	-1.9306e-40
246	0x0001112b	9.7994e-41
247	0x80018a5c	-1.4147e-40
248	0x00002780	1.417e-41
249	0x80013794	-1.11773e-40
250	0x80026da1	-2.22998e-40
251	0x800156b5	-1.2294e-40
252	0x0001720a	1.32745e-40
253	0x00012a92	1.07107e-40
254	0x00034724	3.01027e-40
255	0x8000285c	-1.4478e-41

fc2.bias f4 [256]
0	0x80001356	-6.936e-42
1	0x000150a3	1.20763e-40
2	0x80020ec1	-1.88964e-40
3	0x000138e5	1.12245e-40
4	0x0000a9e2	6.0942e-41
5	0x80034b58	-3.02535e-40
6	0x0000bbf1	6.742e-41
7	0x80008195	-4.6485e-41
8	0x00023bed	2.05168e-40
9	0x00010c1b	9.6178e-41
10	0x80034022	-2.98513e-40
11	0x8000a2a2	-5.8342e-41
12	0x8000db3a	-7.8644e-41
13	0x80002eec	-1.6832e-41
14	0x80014514	-1.16616e-40
15	0x800215f8	-1.91552e-40
16	0x80007ae7	-4.4089e-41
17	0x80000684	-2.337e-42
18	0x800265f6	-2.20248e-40
19	0x00020adb	1.87565e-40
20	0x000174f2	1.33788e-40
21	0x0001180e	1.00465e-40
22	0x80021844	-1.92376e-40
23	0x8001a6aa	-1.51623e-40
24	0x00014a16	1.18413e-40
25	0x800315ab	-2.8328e-40
26	0x8002182a	-1.9234e-40
27	0x00008ce4	5.0542e-41
28	0x00015fb0	1.26162e-40
29	0x0002130c	1.90504e-40
30	0x0003089c	2.78595e-40
31	0x800356fe	-3.06713e-40
32	0x800071df	-4.0849e-41
33	0x000213e6	1.90809e-40
34	0x0000d461	7.6187e-41
35	0x0000fc5f	9.0534e-41
36	0x00005628	3.0907e-41
37	0x8000c92a	-7.2164e-41
38	0x00004bcf	2.7195e-41
39	0x800027a7	-1.4225e-41
40	0x8000411a	-2.3354e-41
41	0x80018134	-1.38185e-40
42	0x00016c3c	1.30663e-40
43	0x800144d6	-1.16529e-40
44	0x8001064d	-9.4096e-41
45	0x80026ed9	-2.23436e-40
46	0x80015986	-1.2395e-40
47	0x80021b89	-1.93549e-40
48	0x0000dee2	7.9955e-41
49	0x8002176e	-1.92076e-40
50	0x8002b8f0	-2.50014e-40
51	0x00022bfc	1.9945e-40
52	0x80001dd1	-1.0696e-41
53	0x800275be	-2.25909e-40
54	0x00000cc0	4.574e-42
55	0x0001d989	1.69872e-40
56	0x00018ad8	1.41643e-40
57	0x80024eb2	-2.11902e-40
58	0x0000e4f3	8.2132e-41
59	0x00023c2a	2.05254e-40
60	0x00028cc4	2.34168e-40
61	0x000187e8	1.4059e-40
62	0x00000daa	4.902e-42
63	0x800162a4	-1.27221e-40
64	0x00013988	1.12474e-40
65	0x0000a597	5.9402e-41
66	0x80003764	-1.987e-41
67	0x80021bd4	-1.93654e-40
68	0x0002cbb6	2.56749e-40
69	0x000242b4	2.076e-40
70	0x8000b45f	-6.4705e-41
71	0x80009f69	-5.7186e-41
72	0x00003127	1.7633e-41
73	0x8002172a	-1.9198e-40
74	0x8000a122	-5.7804e-41
75	0x00006f77	3.9986e-41
76	0x000227ef	1.97996e-40
77	0x8001c45a	-1.62273e-40
78	0x80022823	-1.9807e-40
79	0x8000e153	-8.0831e-41
80	0x000000b4	2.52e-43
81	0x00020316	1.84778e-40
82	0x80011527	-9.9424e-41
83	0x800071b8	-4.0795e-41
84	0x00007296	4.1106e-41
85	0x00014748	1.17406e-40
86	0x80014410	-1.16252e-40
87	0x00024404	2.0807e-40
88	0x8002553d	-2.14249e-40
89	0x800047f2	-2.5809e-41
90	0x80022478	-1.96754e-40
91	0x00022c48	1.99556e-40
92	0x8000c66d	-7.1182e-41
93	0x0002a9e7	2.4462e-40
94	0x80018825	-1.40675e-40
95	0x80014536	-1.16664e-40
96	0x00019773	1.46165e-40
97	0x0003b607	3.40806e-40
98	0x80033209	-2.93456e-40
99	0x0001885e	1.40755e-40
100	0x00002420	1.2959e-41
101	0x8001e645	-1.7444e-40
102	0x0001eeee	1.77547e-40
103	0x80028069	-2.29736e-40
104	0x8002897a	-2.32988e-40
105	0x00015b10	1.24503e-40
106	0x80016733	-1.28856e-40
107	0x00029da6	2.40225e-40
108	0x00008964	4.9286e-41
109	0x8001c024	-1.60763e-40
110	0x00027e6b	2.29021e-40
111	0x00003943	2.0542e-41
112	0x00021f6e	1.94946e-40
113	0x00006dc1	3.9372e-41
114	0x000212f5	1.90471e-40
115	0x000120e2	1.03632e-40
116	0x80006e9b	-3.9678e-41
117	0x00022234	1.95941e-40
118	0x00001a99	9.541e-42
119	0x80000b9c	-4.165e-42
120	0x00005d13	3.3389e-41
121	0x8001e5d6	-1.74285e-40
122	0x80027080	-2.24028e-40
123	0x000052a4	2.9646e-41
124	0x0002a037	2.41145e-40
125	0x80009d03	-5.6325e-41
126	0x000369a1	3.13399e-40
127	0x00018504	1.39553e-40
128	0x00027040	2.23939e-40
129	0x8000964f	-5.392e-41
130	0x80007a87	-4.3955e-41
131	0x8001bbc9	-1.592e-40
132	0x80031627	-2.83453e-40
133	0x000116fc	1.00081e-40
134	0x0000b958	6.6489e-41
135	0x00033a73	2.96474e-40
136	0x80017234	-1.32804e-40
137	0x80013f9c	-1.14654e-40
138	0x00020072	1.83831e-40
139	0x8000d799	-7.7342e-41
140	0x0002efa4	2.69638e-40
141	0x0000d57b	7.6582e-41
142	0x800144a7	-1.16463e-40
143	0x00014f6d	1.20328e-40
144	0x800245a9	-2.0866e-40
145	0x80004479	-2.4563e-41
146	0x000019e6	9.29e-42
147	0x800139ef	-1.12618e-40
148	0x00015b31	1.24549e-40
149	0x0000ca99	7.2678e-41
150	0x80007da2	-4.5069e-41
151	0x00016a76	1.30026e-40
152	0x00020c68	1.88122e-40
153	0x8003608d	-3.10142e-40
154	0x80020999	-1.87114e-40
155	0x000092cf	5.2665e-41
156	0x800030b7	-1.7476e-41
157	0x00009189	5.2208e-41
158	0x8000b1f9	-6.3845e-41
159	0x8001034d	-9.302e-41
160	0x80024df6	-2.11638e-40
161	0x800157b8	-1.23303e-40
162	0x000239ad	2.04361e-40
163	0x00005934	3.2e-41
164	0x00025e16	2.17423e-40
165	0x000164bd	1.27974e-40
166	0x80027f30	-2.29297e-40
167	0x80008388	-4.7185e-41
168	0x000121af	1.03919e-40
169	0x80002f74	-1.7023e-41
170	0x800174a2	-1.33675e-40
171	0x0000dcfc	7.9274e-41
172	0x800228f5	-1.98364e-40
173	0x0002b1d0	2.47458e-40
174	0x80016477	-1.27875e-40
175	0x80012732	-1.05896e-40
176	0x00016fd8	1.31957e-40
177	0x0002cc0c	2.56869e-40
178	0x0002e158	2.64509e-40
179	0x00016d62	1.31075e-40
180	0x8000d171	-7.5133e-41
181	0x0000bf90	6.872e-41
182	0x80026768	-2.20766e-40
183	0x00026ee8	2.23457e-40
184	0x0000c981	7.2286e-41
185	0x00027b09	2.27808e-40
186	0x8000a738	-5.9987e-41
187	0x80016bff	-1.30577e-40
188	0x800001df	-6.71e-43
189	0x8002840d	-2.31042e-40
190	0x8001ebf5	-1.76481e-40
191	0x800033dd	-1.8605e-41
192	0x00002cce	1.6073e-41
193	0x80010e65	-9.6999e-41
194	0x8000c9fb	-7.2457e-41
195	0x80008a27	-4.956e-41
196	0x80009277	-5.2542e-41
197	0x0000963e	5.3897e-41
198	0x80021fb9	-1.95051e-40
199	0x8002add2	-2.46026e-40
200	0x0000fe39	9.1198e-41
201	0x000147db	1.17612e-40
202	0x800071fa	-4.0887e-41
203	0x00009a61	5.5381e-41
204	0x800215d3	-1.915e-40
205	0x000110e0	9.7889e-41
206	0x00004795	2.5679e-41
207	0x000094ce	5.3381e-41
208	0x000306b0	2.77906e-40
209	0x80001d9b	-1.062e-41
210	0x80014479	-1.16399e-40
211	0x0001464a	1.1705e-40
212	0x0001b075	1.55136e-40
213	0x80008c6d	-5.0375e-41
214	0x0000ce0e	7.3918e-41
215	0x80021031	-1.8948e-40
216	0x8000794a	-4.351e-41
217	0x800221b9	-1.95768e-40
218	0x800238b3	-2.04011e-40
219	0x000146d9	1.17251e-40
220	0x000229d9	1.98683e-40
221	0x0000c822	7.1794e-41
222	0x000281b5	2.30201e-40
223	0x80008c60	-5.0357e-41
224	0x00014c13	1.19126e-40
225	0x80034cf2	-3.03109e-40
226	0x00026351	2.19299e-40
227	0x0002b39f	2.48107e-40
228	0x000292e5	2.36367e-40
229	0x8001b325	-1.561e-40
230	0x80018d32	-1.42487e-40
231	0x80002887	-1.4538e-41
232	0x8001ce0d	-1.65753e-40
233	0x80021316	-1.90518e-40
234	0x0000f860	8.91e-41
235	0x00021dc4	1.94349e-40
236	0x000131cd	1.097e-40
237	0x0000f80d	8.8984e-41
238	0x800128e2	-1.06501e-40
239	0x00004004	2.2964e-41
240	0x00004ed6	2.8281e-41
241	0x00009104	5.2022e-41
242	0x80024a34	-2.1029e-40
243	0x0000db54	7.868e-41
244	0x0000bcea	6.777e-41
245	0x00020e75	1.88857e-40
246	0x80021d4e	-1.94184e-40
247	0x80018902	-1.40985e-40
248	0x80008043	-4.6012e-41
249	0x0002ddf4	2.63293e-40
250	0x00000cba	4.565e-42
251	0x80010c53	-9.6257e-41
252	0x0000d623	7.6818e-41
253	0x000151e4	1.21212e-40
254	0x800010f5	-6.083e-42
255	0x8002a75e	-2.43711e-40

fc3.weight f4 [128, 256]
0	0x8002a5a9	-2.43099e-40
1	0x0000a6a7	5.9784e-41
2	0x8000a759	-6.0033e-41
3	0x800151c4	-1.21167e-40
4	0x8000d014	-7.4644e-41
5	0x000093a0	5.2958e-41
6	0x00025cc0	2.16943e-40
7	0x00004b01	2.6906e-41
8	0x8001f58b	-1.7992e-40
9	0x00020e40	1.88783e-40
10	0x80015af0	-1.24458e-40
11	0x80021b97	-1.93568e-40
12	0x800006d8	-2.455e-42
13	0x00011ae3	1.0148e-40
14	0x0000b178	6.3664e-41
15	0x80011dfd	-1.02593e-40
16	0x8000f370	-8.7329e-41
17	0x800238e6	-2.04082e-40
18	0x80002b18	-1.5459e-41
19	0x80020112	-1.84055e-40
20	0x00019be7	1.47763e-40
21	0x000075ac	4.2213e-41
22	0x000011d2	6.393e-42
23	0x00001765	8.392e-42
24	0x8001da62	-1.70176e-40
25	0x80023136	-2.01325e-40
26	0x00003c6d	2.1677e-41
27	0x80017095	-1.32222e-40
28	0x800006c1	-2.423e-42
29	0x000149dd	1.18333e-40
30	0x8001bbe3	-1.59237e-40
31	0x00004648	2.5212e-41
32	0x0000557d	3.0667e-41
33	0x0002170a	1.91936e-40
34	0x0000275b	1.4118e-41
35	0x800138cc	-1.1221e-40
36	0x0000c25c	6.9723e-41
37	0x0002a3c3	2.42418e-40
38	0x00003435	1.8728e-41
39	0x8001a7d2	-1.52038e-40
40	0x800244ec	-2.08396e-40
41	0x000162fb	1.27343e-40
42	0x000115ce	9.9658e-41
43	0x0000136b	6.966e-42
44	0x0000ff34	9.155e-41
45	0x8000b5de	-6.5242e-41
46	0x80018e28	-1.42832e-40
47	0x800106a1	-9.4213e-41
48	0x0000f791	8.881e-41
49	0x00012d83	1.08162e-40
50	0x0002af64	2.46589e-40
51	0x00012df3	1.08319e-40
52	0x0000bd0c	6.7817e-41
53	0x8000076f	-2.667e-42
54	0x80001722	-8.298e-42
55	0x0000645b	3.6001e-41
56	0x00027c46	2.28252e-40
57	0x00032537	2.88857e-40
58	0x8000188d	-8.807e-42
59	0x00020e88	1.88884e-40
60	0x80010162	-9.2332e-41
61	0x80006c81	-3.8924e-41
62	0x8000d754	-7.7245e-41
63	0x80009198	-5.2229e-41
64	0x00016d65	1.31079e-40
65	0x80021438	-1.90924e-40
66	0x80009c50	-5.6074e-41
67	0x0001429d	1.15732e-40
68	0x800030e8	-1.7544e-41
69	0x8001f16b	-1.7844e-40
70	0x80008f79	-5.1468e-41
71	0x00028148	2.30048e-40
72	0x0001b5c2	1.57038e-40
73	0x00005a2c	3.2348e-41
74	0x8002ee7a	-2.6922e-40
75	0x000122a3	1.04261e-40
76	0x8001b416	-1.56438e-40
77	0x0003378b	2.95432e-40
78	0x00032564	2.8892e-40
79	0x8000587a	-3.174e-41
80	0x80015ac6	-1.24399e-40
81	0x0000c02f	6.8942e-41
82	0x8000a217	-5.8147e-41
83	0x0000f963	8.9463e-41
84	0x80019d4f	-1.48267e-40
85	0x0002fdbe	2.74697e-40
86	0x00026ac5	2.21973e-40
87	0x000226df	1.97615e-40
88	0x8000c1d7	-6.9537e-41
89	0x00000133	4.3e-43
90	0x0000e966	8.3728e-41
91	0x8001e491	-1.7383e-40
92	0x800320e5	-2.87307e-40
93	0x00020ddb	1.88641e-40
94	0x000281ad	2.3019e-40
95	0x80016726	-1.28838e-40
96	0x000355b2	3.06248e-40
97	0x8000b37d	-6.4388e-41
98	0x800079f2	-4.3746e-41
99	0x0002aab3	2.44906e-40
100	0x0002f2a2	2.70711e-40
101	0x800007c2	-2.783e-42
102	0x00011095	9.7784e-41
103	0x80022f80	-2.00711e-40
104	0x00027c3b	2.28236e-40
105	0x00003cb0	2.177e-41
106	0x80012faa	-1.08934e-40
107	0x00005cf1	3.3341e-41
108	0x0001d030	1.66519e-40
109	0x0001583b	1.23487e-40
110	0x80008afc	-4.9858e-41
111	0x00016716	1.28816e-40
112	0x0001ecee	1.7683e-40
113	0x8001058e	-9.3828e-41
114	0x8000d487	-7.624e-41
115	0x8003468a	-3.00811e-40
116	0x0001336f	1.10286e-40
117	0x80009739	-5.4248e-41
118	0x80028f74	-2.35132e-40
119	0x8000f9fb	-8.9676e-41
120	0x00003e6f	2.2397e-41
121	0x80014098	-1.15007e-40
122	0x00000c28	4.361e-42
123	0x8001aa28	-1.52876e-40
124	0x00016cbb	1.3084e-40
125	0x8002f6ea	-2.72247e-40
126	0x00005318	2.9808e-41
127	0x000041cb	2.3602e-41
128	0x8002218f	-1.9571e-40
129	0x800218e9	-1.92607e-40
130	0x8000db7b	-7.8735e-41
131	0x00000a67	3.732e-42
132	0x800271f2	-2.24547e-40
133	0x80027284	-2.24751e-40
134	0x80023853	-2.03876e-40
135	0x80011d77	-1.02405e-40
136	0x80012081	-1.03496e-40
137	0x00036722	3.12504e-40
138	0x8001523d	-1.21337e-40
139	0x00017bd6	1.3626e-40
140	0x00009edb	5.6987e-41
141	0x000186e2	1.40222e-40
142	0x0002704b	2.23954e-40
143	0x8002f6fb	-2.72271e-40
144	0x8002c5f8	-2.54689e-40
145	0x8000dd5b	-7.9407e-41
146	0x00010da0	9.6723e-41
147	0x8002ad41	-2.45823e-40
148	0x00019c72	1.47957e-40
149	0x8000a7b1	-6.0156e-41
150	0x8000b8e6	-6.6329e-41
151	0x0001955a	1.45413e-40
152	0x00035798	3.06929e-40
153	0x000002bb	9.8e-43
154	0x0001795c	1.35371e-40
155	0x00012374	1.04554e-40
156	0x00021192	1.89974e-40
157	0x8001afdb	-1.5492e-40
158	0x8002f619	-2.71954e-40
159	0x00014852	1.17779e-40
160	0x00004352	2.415e-41
161	0x80010842	-9.4798e-41
162	0x0002a9a3	2.44525e-40
163	0x80007c58	-4.4606e-41
164	0x80021585	-1.91391e-40
165	0x00013777	1.11733e-40
166	0x8001e1f0	-1.72887e-40
167	0x000250b1	2.12618e-40
168	0x8000dcf0	-7.9257e-41
169	0x8000e013	-8.0383e-41
170	0x00023c1a	2.05231e-40
171	0x0001c96a	1.64089e-40
172	0x80025ded	-2.17365e-40
173	0x000256b3	2.14773e-40
174	0x0000975f	5.4302e-41
175	0x8000f951	-8.9438e-41
176	0x000024c7	1.3193e-41
177	0x0000db72	7.8722e-41
178	0x000223e0	1.9654e-40
179	0x00028b53	2.33651e-40
180	0x00030610	2.77681e-40
181	0x8000241c	-1.2954e-41
182	0x00022013	1.95177e-40
183	0x8001f8d5	-1.811e-40
184	0x00014320	1.15915e-40
185	0x00024ac2	2.10489e-40
186	0x80036219	-3.10697e-40
187	0x00014998	1.18236e-40
188	0x8001ce8f	-1.65935e-40
189	0x0000bb7a	6.7254e-41
190	0x80023e25	-2.05964e-40
191	0x80010312	-9.2937e-41
192	0x00003e53	2.2358e-41
193	0x0002b7c1	2.4959e-40
194	0x80020820	-1.86586e-40
195	0x00027268	2.24712e-40
196	0x00003c1f	2.1567e-41
197	0x80029051	-2.35442e-40
198	0x00023dbc	2.05817e-40
199	0x800054ae	-3.0377e-41
200	0x00002d22	1.619e-41
201	0x800139aa	-1.12521e-40
202	0x000178c4	1.35158e-40
203	0x80029258	-2.36169e-40
204	0x8001b469	-1.56554e-40
205	0x00004b7a	2.7076e-41
206	0x000284f9	2.31373e-40
207	0x800316b6	-2.83654e-40
208	0x000122d2	1.04327e-40
209	0x800014c9	-7.456e-42
210	0x000050d5	2.8997e-41
211	0x0002d0e7	2.58611e-40
212	0x0001a18b	1.49786e-40
213	0x0001ecc9	1.76778e-40
214	0x00010aa2	9.565e-41
215	0x8000c025	-6.8928e-41
216	0x00023f4a	2.06375e-40
217	0x8002bb95	-2.50963e-40
218	0x000247bd	2.09406e-40
219	0x800274ee	-2.25617e-40
220	0x0000df0a	8.0011e-41
221	0x800298af	-2.38444e-40
222	0x8001705b	-1.32141e-40
223	0x800064e4	-3.6193e-41
224	0x00021f90	1.94993e-40
225	0x80028150	-2.3006e-40
226	0x8000de32	-7.9709e-41
227	0x0000fba7	9.0276e-41
228	0x00033659	2.95003e-40
229	0x00019d28	1.48213e-40
230	0x8000b9c6	-6.6643e-41
231	0x00015889	1.23596e-40
232	0x00011e39	1.02677e-40
233	0x0000298c	1.4904e-41
234	0x00030f9f	2.8111e-40
235	0x0002013d	1.84115e-40
236	0x00021b26	1.9341e-40
237	0x00013e10	1.141e-40
238	0x80008b2c	-4.9925e-41
239	0x8001330a	-1.10145e-40
240	0x80001c81	-1.0225e-41
241	0x00010a07	9.5433e-41
242	0x800009e7	-3.552e-42
243	0x000333c5	2.94078e-40
244	0x000362c6	3.1094e-40
245	0x80026e8d	-2.23329e-40
246	0x80012168	-1.0382e-40
247	0x80001efb	-1.1114e-41
248	0x800268ec	-2.2131e-40
249	0x00006351	3.5628e-41
250	0x00011a3a	1.01244e-40
251	0x8001134a	-9.8755e-41
252	0x8000e39f	-8.1655e-41
253	0x800259e1	-2.15913e-40
254	0x8002743d	-2.2537e-40
255	0x00023945	2.04215e-40

fc3.bias f4 [128]
0	0x960031a0	-1.0355417e-25
1	0xb985cac9	-0.00025518824
2	0x93506a6d	-2.6305763e-27
3	0xb4a10a6b	-2.9996167e-07
4	0xa894746f	-1.6481796e-14
5	0x2ef74dcd	1.124608e-10
6	0x01469e99	3.6480645e-38
7	0x1f9ca91a	6.6348325e-20
8	0x80013843	-1.12018e-40
9	0x9adedf77	-9.2178075e-23
10	0xacd0a605	-5.9301474e-12
11	0x2acb2b00	3.608988e-13
12	0xa0c1c309	-3.2824535e-19
13	0xa1b34e97	-1.2150314e-18
14	0xa58bbbc4	-2.423989e-16
15	0xb4754f2e	-2.2846208e-07
16	0x38aeb41e	8.330516e-05
17	0x80019f8a	-1.49067e-40
18	0xb2dcad83	-2.5690275e-08
19	0xa63f774f	-6.642813e-16
20	0x9b870630	-2.2337875e-22
21	0xa9cddfb6	-9.1426365e-14
22	0xb7ab0030	-2.0384876e-05
23	0xac8f23fa	-4.0682986e-12
24	0xa70bf627	-1.9423565e-15
25	0xb107804f	-1.971802e-09
26	0x329bd2cf	1.814024e-08
27	0xaf1beb3a	-1.4180737e-10
28	0x8f2ab2e6	-8.416102e-30
29	0x2dbad510	2.124037e-11
30	0x2d76635a	1.40055415e-11
31	0xae16a96e	-3.4256535e-11
32	0x8264d928	-1.6813115e-37
33	0xba669758	-0.00087963557
34	0xb32bab11	-3.9969624e-08
35	0xb6b59aaa	-5.4122256e-06
36	0xb11f2152	-2.3156486e-09
37	0x1a89de41	5.702094e-23
38	0x2e358485	4.1272336e-11
39	0xb171edda	-3.5205319e-09
40	0x2d85e854	1.5223524e-11
41	0xb320bbaf	-3.74236e-08
42	0x209394e3	2.5001294e-19
43	0x2a08f2c5	1.2163454e-13
44	0xb7d4482b	-2.5305975e-05
45	0x85d50a16	-2.0034129e-35
46	0x32ea59a3	2.7281947e-08
47	0x3834285e	4.295294e-05
48	0x2571b271	2.0963876e-16
49	0xb66244d6	-3.3716692e-06
50	0xb6919be2	-4.339484e-06
51	0xae39969a	-4.219789e-11
52	0x250c5f96	1.217545e-16
53	0xae19c340	-3.496159e-11
54	0xa856dfa5	-1.19278815e-14
55	0xa8e42f9c	-2.5333732e-14
56	0x2f153487	1.3570133e-10
57	0xb2c7e565	-2.3270966e-08
58	0x2357974b	1.1687211e-17
59	0x2d0f340b	8.140165e-12
60	0xb8c0bd5d	-9.190545e-05
61	0xaf9b0d0a	-2.82036e-10
62	0x26405417	6.6727344e-16
63	0xae5862e9	-4.9200564e-11
64	0xb8674e54	-5.514764e-05
65	0xa9211e08	-3.577523e-14
66	0x9a1fd9a1	-3.305623e-23
67	0x0010b057	1.532627e-39
68	0xb333ad4c	-4.1834298e-08
69	0xb782f6a9	-1.5612068e-05
70	0x3614da34	2.218073e-06
71	0x3776f5ad	1.47199435e-05
72	0x9a508cfd	-4.312728e-23
73	0xa536ac91	-1.5844451e-16
74	0x07d9bd1d	3.2761682e-34
75	0x33abeb8a	8.005652e-08
76	0x962a1fb5	-1.3742496e-25
77	0xb33eaf84	-4.4397453e-08
78	0xb9ac9e63	-0.00032924404
79	0xb0bc6c9b	-1.3709668e-09
80	0x38633dfe	5.4178752e-05
81	0x943202bb	-8.987242e-27
82	0xb551894e	-7.805837e-07
83	0xb8a451ad	-7.835343e-05
84	0xb87bac88	-6.0003746e-05
85	0x31e607cc	6.6947674e-09
86	0xa8791c8e	-1.38284685e-14
87	0xb05917d9	-7.897803e-10
88	0xaef53d6b	-1.115222e-10
89	0x9e256974	-8.7568345e-21
90	0xabca94a5	-1.439422e-12
91	0xa51c6837	-1.3566152e-16
92	0x220c0ac5	1.897924e-18
93	0x98a2520b	-4.195886e-24
94	0x38eb3653	0.00011215792
95	0xb43ff0e2	-1.7875894e-07
96	0xb1c8b05d	-5.8408163e-09
97	0xae9a3af9	-7.013585e-11
98	0xa8d58294	-2.370438e-14
99	0xa1561738	-7.253675e-19
100	0x36bb796e	5.5871706e-06
101	0xb7b84e0f	-2.1970858e-05
102	0x381d32fe	3.7479207e-05
103	0xa33d09c1	-1.0247776e-17
104	0x86d4d990	-8.0065216e-35
105	0x378a87e3	1.651416e-05
106	0xb8578436	-5.1383126e-05
107	0x9f0de017	-3.0043274e-20
108	0xb5922efa	-1.089152e-06
109	0x31f13371	7.0198714e-09
110	0x048038d0	3.014483e-36
111	0xb02e017d	-6.3302946e-10
112	0x9d4888fd	-2.65406e-21
113	0x346cf2db	2.2067563e-07
114	0xa28fdfae	-3.8997058e-18
115	0xb4446ef9	-1.8294294e-07
116	0x1ab7c597	7.600625e-23
117	0xac1d547c	-2.235794e-12
118	0x216401f0	7.725197e-19
119	0x310519f3	1.9368798e-09
120	0xbaec1bf3	-0.0018013701
121	0xaf602a08	-2.0387614e-10
122	0x300614a7	4.8778265e-10
123	0xa38f3600	-1.5526961e-17
124	0xa097a359	-2.568849e-19
125	0xad648f0c	-1.2992062e-11
126	0xacecbc4a	-6.7284277e-12
127	0x308ac7da	1.0097623e-09

fc4.weight f4 [1, 128]
0	0x946458bd	-1.1528559e-26
1	0xb9e387e4	-0.0004339806
2	0x12253eb1	5.2142093e-28
3	0x34a33ab0	3.0403817e-07
4	0xa8950d12	-1.6547991e-14
5	0xb24889bd	-1.167285e-08
6	0x81b02fd5	-6.4720825e-38
7	0x9fa1345e	-6.8272786e-20
8	0x00004d08	2.7634e-41
9	0x9a86320a	-5.5501944e-23
10	0x2cd02cbd	5.9166825e-12
11	0xaaca1a01	-3.5900452e-13
12	0x21147253	5.0295657e-19
13	0x21cef362	1.4023526e-18
14	0x2555d599	1.8547175e-16
15	0x347550a5	2.2846741e-07
16	0xb8aeb399	-8.330419e-05
17	0x0000b0ff	6.3494e-41
18	0xb2d181cd	-2.4389829e-08
19	0x263d87cd	6.575659e-16
20	0x9b3d834b	-1.5676137e-22
21	0x29d3b2e1	9.401313e-14
22	0x375fbadb	1.33353415e-05
23	0xac6fcc94	-3.4077506e-12
24	0xa70be775	-1.9415598e-15
25	0x308ad739	1.0101991e-09
26	0xb2a19600	-1.8811079e-08
27	0xaf20d76a	-1.4628446e-10
28	0x8d7f696c	-7.870484e-31
29	0xad9da0b1	-1.7920195e-11
30	0xada61e18	-1.888538e-11
31	0x2e13bb2a	3.3590165e-11
32	0x0168b2d5	4.2739976e-38
33	0xba6696f4	-0.00087962975
34	0xb32baafc	-3.996955e-08
35	0xb6b5ec40	-5.4217235e-06
36	0xb11f212e	-2.3156406e-09
37	0x9a87e9e1	-5.621254e-23
38	0xae30d8a3	-4.021018e-11
39	0xb0860050	-9.749872e-10
40	0xad7cf174	-1.4378155e-11
41	0x33dc90cb	1.0270886e-07
42	0x2122047e	5.489368e-19
43	0xaa0a6dca	-1.2294953e-13
44	0x37ac0e29	2.0510592e-05
45	0x05ac597c	1.6207674e-35
46	0xb2e2b7c9	-2.6393439e-08
47	0xb83568f5	-4.325151e-05
48	0xa57b8071	-2.1814297e-16
49	0xb66261d0	-3.3733559e-06
50	0x3690cba1	4.31524e-06
51	0x2ec4d06f	8.950073e-11
52	0x25b93631	3.2129106e-16
53	0x2e19ba8c	3.495386e-11
54	0x2859e7e2	1.2096201e-14
55	0x2939ba4c	4.123984e-14
56	0xaf313d2e	-1.6119792e-10
57	0x32dcef9c	2.5720333e-08
58	0xa349cdbe	-1.09397994e-17
59	0xad133bf6	-8.369297e-12
60	0x38d3711d	0.00010082333
61	0x2f93dba4	2.6895208e-10
62	0xa6446854	-6.814255e-16
63	0x2e2ed3de	3.9751195e-11
64	0x38675055	5.5149507e-05
65	0xa7ab72a9	-4.758635e-15
66	0x9a2f61fc	-3.6268303e-23
67	0x8094f5ab	-1.3679782e-38
68	0x2e7271d2	5.5125522e-11
69	0x343d3393	1.7620759e-07
70	0xb614e1ca	-2.2185145e-06
71	0xb7762f99	-1.4673825e-05
72	0x9a5091bd	-4.3131118e-23
73	0x25344c86	1.5638438e-16
74	0x87e72e75	-3.4784322e-34
75	0x330ecd7e	3.3248845e-08
76	0x15fbf271	1.017606e-25
77	0xb215a574	-8.710561e-09
78	0x3a6fe4df	0.0009151231
79	0xb0b5f8a9	-1.3240157e-09
80	0xb858ba74	-5.167206e-05
81	0x140cac70	7.102201e-27
82	0xb4582a19	-2.0131883e-07
83	0x393393cc	0.00017125829
84	0xb857babc	-5.1433904e-05
85	0x314e4246	3.0014617e-09
86	0xa8eed8cb	-2.6517327e-14
87	0xb00155c1	-4.705179e-10
88	0x2eec4655	1.0744531e-10
89	0x1d002ccd	1.696382e-21
90	0x2bbb8b09	1.3325739e-12
91	0x2458f20b	4.7042552e-17
92	0x22633cc6	3.079641e-18
93	0x18a22d51	4.1921776e-24
94	0x38e1ae94	0.00010761354
95	0x343feee0	1.7875163e-07
96	0xb1d1f02e	-6.110006e-09
97	0xae3ee8e0	-4.3407833e-11
98	0xa908dbc6	-3.038869e-14
99	0x2156104f	7.2527605e-19
100	0x36f470a6	7.2848807e-06
101	0x378517ad	1.586586e-05
102	0x395552af	0.00020344065
103	0x21d1e2be	1.4222409e-18
104	0x06d2e95d	7.9336117e-35
105	0xb8141fcb	-3.531556e-05
106	0xb8517fd0	-4.9948518e-05
107	0x1e2c147a	9.109839e-21
108	0xb5940507	-1.1028322e-06
109	0xb1f3ae59	-7.092052e-09
110	0x03791948	7.3203545e-37
111	0x302dceb3	6.323077e-10
112	0x9d2fe402	-2.3278934e-21
113	0x3588e1af	1.0198472e-06
114	0xa29100f7	-3.930335e-18
115	0x344333dc	1.8179657e-07
116	0x9a79536b	-5.1559378e-23
117	0xabaed188	-1.24216e-12
118	0xa230585f	-2.3899231e-18
119	0xb1051886	-1.9367987e-09
120	0xbaec24e1	-0.0018016362
121	0x2f602a10	2.0387625e-10
122	0xb016266b	-5.462428e-10
123	0x22b563fd	4.9166015e-18
124	0xa09a2010	-2.6109832e-19
125	0xac69602a	-3.3164673e-12
126	0xacf620eb	-6.995395e-12
127	0x308b27a4	1.0124848e-09
