p2_continuous-control/checkpoint_critic.pth (torch_old, 696260 bytes, 7 tensors)

fcs1.weight f4 [400, 33]
-1.1963404e-10 2.577077e-11 2.9448527e-11 3.6133278e-07 -3.748128e-10 4.824147e-07 6.1825796e-12 1.8012582e-10
2.4602811e-10 5.136184e-06 -3.3347238e-08 8.761537e-12 -2.6353922e-10 -0.00013699713 -3.5577104e-05 4.10147e-06
4.27697e-09 2.8881653e-09 -6.424563e-09 -5.414651e-10 -2.1911026e-06 2.2364376e-10 -1.9632503e-12 3.868134e-09
-2.1488377e-06 1.3614126e-06 -1.1924996e-05 3.4730718e-07 -1.339237e-06 -4.195943e-11 6.3266032e-09 1.4259504e-12
-5.4120434e-11 3.3250188e-05 5.252303e-12 -2.2736578e-05 -2.3838193e-10 2.1393228e-06 6.0007476e-12 1.6295706e-11
1.9028173e-08 -9.3119565e-09 1.8051268e-06 1.1547256e-12 -8.3696466e-10 2.1980089e-09 3.577922e-08 1.0389736e-08
-2.731418e-11 1.2495085e-11 5.96744e-09 -7.936561e-06 -1.0858265e-09 1.1333399e-11 -8.0458994e-11 1.2316852e-09
-9.305007e-09 5.681445e-11 -2.9292195e-07 3.725239e-12 -2.7765117e-07 3.0783613e-06 3.846343e-08 -4.0675083e-08
-6.298781e-11 -4.0042618e-05 -2.32796e-11 -2.8700251e-06 1.4005099e-05 3.382683e-10 -3.36438e-10 -9.7928235e-11
1.9316593e-07 -5.360223e-09 -4.9195047e-11 -2.6309667e-07 -1.0994314e-09 3.4267764e-08 -6.3781913e-09 -1.7382757e-07
-1.6118346e-08 -5.2568927e-10 -5.8482226e-07 -6.3900214e-13 -2.9389377e-05 7.510673e-12 4.0856044e-11 5.1738725e-06
-1.4633498e-07 4.6222212e-10 -1.1839443e-09 -2.1007442e-07 -4.6918018e-08 9.426396e-12 -2.8850278e-11 -1.3458421e-11
-2.141633e-05 7.000676e-05 -1.0759211e-09 6.1947964e-12 4.6716618e-08 -2.4590857e-10 -4.7043636e-06 -6.2785066e-10
2.8507314e-09 3.7498612e-08 0.0001748701 -0.00014836635 3.9955252e-09 1.5962279e-09 5.0079524e-11 1.11632203e-10
-2.6210398e-07 -1.590863e-08 4.5528695e-10 1.0448417e-06 1.7965854e-12 2.8095697e-06 -2.174427e-12 -3.318741e-09
-8.374674e-08 -3.7221446e-09 4.286828e-08 8.433721e-05 4.8293856e-07 -4.871032e-10 -2.0117213e-06 -2.7961654e-11
1.8464068e-10 -1.8438664e-11 3.150396e-11 8.58358e-11 6.91823e-10 -2.441232e-11 -8.7513385e-11 -1.046363e-06
-1.5538966e-10 -1.4768031e-08 -4.177927e-12 -8.974437e-08 -1.7917123e-10 5.441097e-10 1.1283714e-05 -1.5569122e-11
3.1473878e-06 -2.0920919e-10 9.843884e-11 6.5462955e-11 -1.5670459e-08 -1.0349208e-09 -2.5327334e-11 1.364554e-12
-3.762046e-07 -1.115233e-05 5.1614533e-12 9.5258645e-07 -1.6330904e-11 -1.6530654e-11 -1.3760931e-06 -1.9467972e-11
-2.826602e-08 3.3310467e-08 2.8033233e-12 1.9094037e-09 8.1705537e-07 -9.956105e-10 -5.7009614e-10 7.715342e-09
-2.289274e-11 2.860556e-08 8.37128e-10 -4.558076e-05 -1.948235e-08 -1.5692786e-09 7.2309034e-11 -7.0670944e-06
6.8153706e-05 -1.3729021e-11 7.296673e-12 -1.8232689e-10 1.4611026e-11 2.7703587e-07 -2.9224412e-07 2.920542e-07
1.2208324e-06 -1.1890862e-10 -8.7641354e-08 -3.2548557e-09 2.08946e-09 2.6452106e-08 -1.3950195e-09 -9.622177e-12
-1.8183866e-07 7.935179e-12 2.0904428e-05 -2.9909814e-11 1.0582224e-06 -2.4649551e-11 -3.485484e-07 -1.87481e-08
5.30535e-05 1.3044089e-08 5.057169e-11 3.0416756e-09 -1.0541173e-08 5.65692e-05 6.3059105e-09 -2.6903273e-13
9.671843e-11 -0.00010611008 7.0894256e-11 -7.9011684e-12 2.4116753e-07 -3.940606e-11 7.39844e-08 3.9210618e-10
-7.169483e-10 4.904593e-07 1.1694685e-09 1.8830128e-06 1.0521869e-11 3.4734333e-06 1.353165e-11 2.792513e-06
-3.1243497e-11 -2.1727951e-10 1.3081239e-09 -1.3675668e-10 -2.8992488e-12 -2.9195713e-12 -4.866419e-07 -1.2872847e-08
-3.290901e-07 -5.1309624e-05 1.1094529e-07 4.6588553e-08 -5.2370543e-09 -9.933598e-06 -5.9701726e-08 -1.5519791e-07
1.7124317e-07 -1.4207241e-05 1.0016533e-08 -4.8999445e-06 5.4607062e-11 7.348235e-06 -2.6044307e-05 -5.689383e-12
-3.4085623e-12 7.397774e-12 -2.0864466e-06 -1.7304452e-05 -3.5215704e-12 1.5972128e-10 1.35092285e-11 4.8439958e-08
00000000: fd89 03af 9dae e22d 1884 012e 33fd c134
00000010: 360e ceaf 497f 0135 ba87 d92c e90c 462f
00000020: 6141 872f 7c57 ac36 ad39 0fb3 7422 1a2d
00000030: d9e1 90af e3a6 0fb9 a038 15b8 5c9f 8936
00000040: a0f4 9231 2479 4631 0ebf dcb1 38d6 14b0
00000050: db0a 13b6 1fe6 752f c626 0aac 77e8 8431
00000060: c034 10b6 c8b9 b635 7811 48b7 8975 ba34
00000070: d5bf b3b5 1e8a 38ae 6461 d931 47af c82b
00000080: 3106 6eae 1e76 0b38 8acc b82c 6eba beb7
00000090: 460d 83af 4991 0f36 ee21 d32c ab56 8f2d
000000a0: 6573 a332 6bfa 1fb2 af47 f235 6083 a22b
000000b0: 2710 66b0 c80b 1731 abab 1933 8b7e 3232
000000c0: 1142 f0ad dcd0 5b2d 280a cd31 4527 05b7
000000d0: 203c 95b0 1761 472d 63ee b0ae 1248 a930
000000e0: dbdb 1fb2 62df 792e e342 9db4 f811 832c
000000f0: 1610 95b4 d895 4e36 fd32 2533 bab2 2eb3
00000100: fc82 8aae 6ff3 27b8 00c5 ccad a89a 40b6
00000110: 71f7 6a37 08f7 b92f 70f5 b8af b258 d7ae
00000120: 0c69 4f34 052d b8b1 b35c 58ae bb3f 8db4
00000130: ce1a 97b0 ce2d 1333 2a27 dbb1 5ca5 3ab4
00000140: 9e74 8ab2 1880 10b0 aefc 1cb5 f5dc 33ab
00000150: 3589 f6b7 1021 042d d1af 332e 3a9b ad36
00000160: 4120 1db4 fb1b fe2f 56b8 a2b0 d190 61b4
00000170: e882 49b3 b7d4 252d 0dc5 fdad 57c3 6cad
00000180: 38a7 b3b7 98d0 9238 9cdf 93b0 c4f5 d92c
00000190: 77a5 4833 8e30 87af 2dda 9db6 1095 2cb0
000001a0: 99e6 4331 290e 2133 565d 3739 ca92 1bb9
000001b0: 0349 8931 4762 db30 8840 5c2e 587b f52e
000001c0: 4cb7 8cb4 73a7 88b2 f14b fa2f 7d3c 8c35
000001d0: d0d8 fc2b 0a8c 3c36 ff02 19ac e90f 64b1
000001e0: 42d8 b3b3 a9c8 7fb1 2c1e 3833 32de b038
000001f0: 49a3 0135 d7e4 05b0 1c01 07b6 0cf4 f5ad
00000200: bb03 4b2f 2e30 a2ad 4e8e 0a2e 42c1 bc2e
00000210: b72a 3e30 a8bb d6ad a871 c0ae c270 8cb5
00000220: 4dda 2aaf 7db6 7db2 6cff 92ac 7db9 c0b3
00000230: 3800 45af 5190 1530 2f4f 3d37 8cf2 88ad
00000240: b637 5336 2707 66af 2478 d82e 5ef4 8f2e
00000250: b49b 86b2 0a3d 8eb0 16c8 dead 3d0b c02b
00000260: 2bf9 c9b4 e51a 3bb7 3d9a b52c 3eb5 7f35
00000270: eda5 8fad b967 91ad 33b2 b8b5 fa3d abad
00000280: a3cd f2b2 3f11 0f33 2f44 452c 9636 0331
00000290: 9e53 5b35 eed5 88b0 f3b4 1cb0 6f8c 0432
000002a0: de5d c9ad 4bb8 f532 a51b 6630 f82d 3fb8
000002b0: 245a a7b2 15ae d7b0 5e02 9f2e e121 edb6
000002c0: beed 8e38 0486 71ad 4b5d 002d 7578 48af
000002d0: 1b85 802d 85bb 9434 bae5 9cb4 a0cb 9c34
000002e0: 7bdb a335 cdbd 02af 5835 bcb3 07ac 5fb1
000002f0: 2b96 0f31 cc38 e332 e3ba bfb0 6f46 29ad
00000300: 6e3f 43b4 df98 0b2d eb5b af37 758b 03ae
00000310: 3f08 8e35 dbd1 d8ad 2120 bbb4 820b a1b2
00000320: c385 5e38 8318 6032 a96a 5e2e b905 5131
00000330: 9218 35b2 b744 6d38 60ab d831 b473 97aa
00000340: a3af d42e 6a87 deb8 ebe5 9b2e b3ff 0aad
00000350: d079 8134 474f 2dae 5be1 9e33 0a90 d72f
00000360: c012 45b0 1ba8 0335 04bb a030 d4bb fc35
00000370: 491a 392d 2119 6936 220d 6e2d 0267 3b36
00000380: 0d69 09ae bfe6 6eaf 85c9 b330 955d 16af
00000390: 3904 4cac 5272 4dac c7a1 02b5 6127 5db2
000003a0: cdad b0b4 4a35 57b8 d140 ee33 a818 4833
000003b0: 9ef1 b3b1 7ba8 26b7 5f35 80b3 7aa4 26b4
000003c0: f7de 3734 a35b 6eb7 2e15 2c32 346a a4b6
000003d0: 162a 702e dc90 f636 b979 dab7 682d c8ac
000003e0: 33db 6fac 9d24 022d e104 0cb6 0729 91b7
000003f0: f9ce 77ac 8b9d 2f2f 28a8 6d2d 4c0c 5033

fcs1.bias f4 [400]
2.3950784e-05 3.575142e-10 -2.0141168e-11 1.0000885e-10 7.909497e-05 -2.8529905e-07 -2.3219327e-06 -4.671573e-10
7.885529e-10 -1.8381094e-10 -9.470891e-05 -1.0445056e-09 -3.4275655e-10 -1.44337955e-05 4.8817422e-11 -8.8435016e-08
-7.782313e-06 7.586245e-11 2.9410243e-05 6.584102e-06 -3.097431e-08 -2.6028049e-09 5.530699e-12 4.0323434e-06
2.4185621e-05 -3.5968505e-08 2.7196765e-09 -4.5318308e-11 -6.328018e-05 7.2013684e-10 -1.5604053e-11 -1.8168431e-07
-3.8513318e-07 -1.4406698e-10 1.4998905e-08 -2.0303058e-07 -3.0440733e-11 -8.514545e-06 -1.8016728e-08 -3.7779255e-11
1.6306939e-06 5.1105e-08 -2.8762737e-10 5.639893e-11 -7.093643e-10 -1.12077245e-08 -2.984563e-06 1.5401617e-10
0.00019826282 -3.351613e-08 2.1247927e-10 2.3303377e-12 1.4534718e-08 -1.146203e-11 1.6392836e-06 -2.15449e-06
4.6304757e-07 4.6874806e-11 1.9974756e-07 3.8569967e-11 -3.980432e-12 -1.0122355e-11 2.9324602e-07 -5.3259478e-06
-3.7282412e-08 -2.7436416e-05 5.317063e-10 -5.0667666e-09 9.236986e-08 1.2349341e-05 1.05589315e-05 -8.109297e-06
1.1425195e-08 -6.447077e-08 -3.8376146e-11 4.5522064e-08 2.7410076e-06 -2.3498e-11 -1.0529177e-11 -3.8768003e-10
-7.8249955e-11 -7.641613e-06 -5.2802224e-12 1.9216542e-12 6.1564336e-08 3.5039998e-12 -2.5703864e-10 2.41315e-06
-2.91484e-07 2.554586e-10 7.670565e-11 -3.10407e-05 2.9857974e-10 -1.7320946e-06 2.454673e-10 2.3365692e-08
-2.8233885e-06 2.217847e-08 7.508287e-08 -3.0359155e-07 -8.5414136e-08 5.5310534e-10 -1.4980214e-09 -3.4664392e-08
-1.7245357e-08 2.3958153e-05 1.0033585e-13 1.4938932e-07 -5.063839e-10 -3.4323005e-12 -1.332779e-07 -9.606828e-12
1.2023373e-11 -6.585539e-09 -2.7754902e-06 2.1022215e-07 7.464242e-11 5.871916e-06 -7.0945148e-09 -7.516662e-12
-5.6363303e-11 -6.4753955e-08 -2.3000318e-07 -1.8893645e-12 -5.928951e-07 2.4413524e-10 7.849239e-08 -1.1881845e-06
-2.224054e-10 4.5935817e-06 -2.129373e-11 -8.890413e-09 -6.0536036e-06 -1.1738744e-12 4.0514985e-07 -1.0360112e-06
-1.2932342e-09 3.894422e-05 2.8142522e-10 -2.829059e-11 -1.1965143e-06 8.360379e-13 -3.7911893e-06 4.6482793e-08
1.0395119e-11 3.5144076e-05 4.183714e-08 5.49474e-10 -2.33774e-12 9.441155e-07 -1.5361614e-12 3.8930577e-07
7.2663043e-12 5.863988e-07 -5.896937e-12 -2.0102076e-09 7.892044e-12 -5.7233954e-08 -2.2920823e-09 1.4987923e-09
-3.800349e-09 -5.942803e-08 -2.3765363e-06 1.6415069e-07 0.00014893938 4.7410307e-08 2.3465947e-12 2.5071497e-12
4.4618344e-11 1.3485799e-09 -8.090067e-06 1.5518752e-05 2.3955868e-09 -6.1152146e-09 6.6072605e-09 6.083173e-06
1.6173006e-10 2.5657736e-09 -1.6586149e-12 2.896074e-12 -1.0109238e-06 8.52559e-11 6.8388175e-08 -2.9925763e-11
-8.713308e-13 -2.3212865e-09 -1.8988883e-11 1.4843654e-09 -2.4363464e-07 -7.5085993e-10 4.2933315e-10 -3.269773e-11
-5.299225e-07 -8.599875e-08 3.7653944e-08 9.83745e-08 6.989649e-07 2.8294173e-07 1.563225e-05 3.0591524e-05
1.9615756e-08 -4.945638e-07 -1.3747584e-05 1.0635559e-09 -9.90935e-08 -5.374299e-10 -5.9928715e-07 1.0831859e-08
-5.180572e-11 7.349304e-11 9.6787424e-08 1.323312e-08 2.6753371e-08 -3.984128e-09 9.551041e-09 -6.39886e-08
1.25324065e-11 -2.3391907e-07 -5.837275e-11 4.955738e-10 5.500088e-12 -1.5415995e-09 1.0601458e-05 -1.013846e-05
-4.3256343e-10 5.6912522e-05 1.0625923e-08 -2.7043416e-06 6.249477e-07 -5.0197777e-06 -8.895445e-09 2.1894132e-07
-1.0145286e-05 -1.3742525e-11 1.473422e-06 9.334097e-10 -6.7262125e-12 -1.3563787e-06 3.5695603e-11 -6.109083e-12
-2.482387e-05 -5.1131925e-11 -1.9452018e-09 9.870655e-12 -5.558016e-07 3.2099742e-10 1.3110917e-09 -1.2489069e-08
-2.5230842e-10 8.5618666e-08 1.2605542e-10 -1.6766839e-07 7.233636e-12 -7.599232e-08 7.0078144e-08 -5.241364e-11
00000000: ebe9 c837 a78b c42f e129 b1ad faeb db2e
00000010: cadf a538 342b 99b4 80d2 1bb6 4669 00b0
00000020: 7ac1 5830 2e1a 4aaf 759e c6b8 468e 8fb0
00000030: b26e bcaf ae28 72b7 88b3 562e aae9 bdb3
00000040: c890 02b7 c3d2 a62e 04b6 f637 01ed dc36
00000050: 9d08 05b3 07dd 32b1 1c98 c22c 914d 8736
00000060: 3ae2 ca37 ca7b 1ab3 0ee5 3a31 e14f 47ae
00000070: 4ab5 84b8 20f3 4530 3441 89ad 0115 43b4
00000080: 4dc4 ceb4 4067 1eaf f1d6 8032 9f00 5ab4
00000090: 38e1 05ae b1d9 0eb7 34c3 9ab2 a927 26ae
000000a0: 37de da35 8b7e 5b33 f41f 9eaf 8d0b 782e
000000b0: 13fd 42b0 188c 40b2 674a 48b6 b357 292f
000000c0: c5e4 4f39 60f3 0fb3 999f 692f a2fb 232c
000000d0: 5eb4 7932 65a4 49ad 5b05 dc35 db95 10b6
000000e0: c698 f834 5728 4e2e 317a 5634 eca1 292e
000000f0: 8b0c 8cac 0913 32ad 6d6f 9d34 8bb5 b2b6
00000100: 7220 20b3 4127 e6b7 8127 1230 c017 aeb1
00000110: de5c c633 0430 4f37 4426 3137 2a0d 08b7
00000120: 8a48 4432 2e73 8ab3 b3c7 28ae 0a84 4333
00000130: 27f2 3736 cbb0 cead 333b 39ad 1d21 d5af
00000140: cf12 acae 7a34 00b7 04c8 b9ac 7239 072c
00000150: 5a35 8433 7392 762c f94e 8daf 9af1 2136
00000160: 427d 9cb4 9a70 8c2f 71ad a82e b331 02b8
00000170: 5d25 a42f 517a e8b5 74f2 862f b3b5 c832
00000180: 7279 3db6 f982 be32 3f3d a133 4efd a2b4
00000190: eb6c b7b3 5409 1830 f1e2 cdb0 e7e1 14b3
000001a0: f122 94b2 bef9 c837 aeef e129 d367 2034
000001b0: 9931 0bb0 d486 71ac 261b 0fb4 4f01 29ad
000001c0: 7584 532d 0347 e2b1 8f42 3ab6 6db9 6134
000001d0: f223 a42e 6007 c536 03c4 f3b1 093c 04ad
000001e0: 70e3 77ae dd0e 8bb3 cbf6 76b4 c4f3 04ac
000001f0: 7127 1fb5 fb36 862f a68f a833 b579 9fb5
00000200: 8e89 74af 9122 9a36 384d bbad 73bc 18b2
00000210: 0f20 cbb6 4835 a5ab 5f83 d934 130d 8bb5
00000220: a2bd b1b0 0a58 2338 14b7 9a2f bfd8 f8ad
00000230: eb97 a0b5 e152 6b2b 236c 7eb6 5fa4 4733
00000240: 74df 362d aa67 1338 6cb0 3333 cc09 1730
00000250: fb80 24ac 206f 7d35 0c32 d8ab c701 d134
00000260: 0da9 ff2c 0569 1d35 e37a cfac f223 0ab1
00000270: 9bd6 0a2d 66d1 75b3 bd82 1db1 11fe cd30
00000280: 3994 82b1 cf3d 7fb3 957c 1fb6 6641 3034
00000290: 9c2c 1c39 2fa0 4b33 7e20 252c cb6c 302c
000002a0: ca3b 442e f058 b930 93ba 07b7 442e 8237
000002b0: 9c9f 2431 ff1d d2b1 1406 e331 0f1e cc36
000002c0: f7d2 312f 9151 3031 e66d e9ab 08cb 4b2c
000002d0: 14af 87b5 ce7a bb2e ccdc 9233 6a9d 03ae
000002e0: 0042 75ab 8184 1fb1 2a07 a7ad 7702 cc30
000002f0: e4cc 82b4 1265 4eb0 4507 ec2f 5fce 0fae
00000300: ff3f 0eb5 50ae b8b3 f3b8 2133 f441 d333
00000310: 81a0 3b35 37e7 9734 0022 8337 664f 0038
00000320: 817f a832 2ac2 04b5 6ca5 66b7 8c2c 9230
00000330: 3acd d4b3 44ba 13b0 b3de 20b5 0517 3a32
00000340: 0ed8 63ae e79c a12e 73d9 cf33 e157 6332
00000350: 49cf e532 c3e4 88b1 ec15 2432 1b6a 89b3
00000360: f178 5c2d 2f2b 7bb4 f05c 80ae e838 0830
00000370: 6384 c12c 36e0 d3b0 eadc 3137 5b18 2ab7
00000380: e4cd edaf 5bb5 6e38 4e8d 3632 3c7c 35b6
00000390: 14c2 2735 906f a8b6 95d2 18b2 2216 6b34
000003a0: ac35 2ab7 d5c2 71ad 65c2 c535 6f49 8030
000003b0: 56a8 ecac d10c b6b5 adfd 1c2e baf1 d6ac
000003c0: db3c d0b7 6ee1 60ae 5aac 05b1 7aa5 2d2d
000003d0: 6532 15b5 5f78 b02f f031 b430 828f 56b2
000003e0: 41b5 8aaf 5cdd b733 7299 0a2f 5608 34b4
000003f0: cd82 fe2c 3831 a3b3 de7d 9633 8384 66ae

fc2.weight f4 [300, 404]
1.5829584e-11 0.00014464027 -3.0586352e-12 -9.550289e-08 -5.687362e-10 7.8708496e-08 -3.2456978e-11 4.2489836e-07
-3.5407755e-12 2.6978548e-06 -5.348084e-12 -8.936364e-11 1.4930416e-07 -2.9264438e-11 1.1047649e-12 1.6101999e-09
-3.4734574e-12 1.2940881e-08 -8.055512e-12 5.325025e-05 6.3661982e-06 -5.070045e-07 -4.5653065e-11 1.18747165e-11
-1.7917754e-08 3.5295875e-06 5.8935314e-09 6.766871e-05 8.010589e-06 -1.4625853e-11 2.7641569e-08 -5.38728e-09
-5.916191e-09 2.099873e-07 6.474293e-12 4.616288e-09 3.4125094e-09 2.4268137e-12 -1.3165194e-11 5.4688576e-12
3.29362e-11 6.0869947e-06 -1.0405325e-06 -2.7439932e-11 -8.705144e-08 4.5315276e-11 -1.3551706e-07 -6.443064e-06
6.983412e-08 5.1430336e-12 -7.835704e-09 8.5084204e-11 1.15063905e-11 1.14199795e-11 3.925432e-09 4.7218072e-07
1.8498359e-06 -1.6301026e-12 8.9578886e-11 -4.3478707e-11 1.2563843e-12 -9.2693166e-11 2.945812e-10 -1.804237e-07
-6.773556e-09 -1.8637691e-07 2.0002161e-10 -2.0887044e-05 5.5417546e-09 -1.577304e-05 2.6290959e-11 -2.1467206e-06
6.622944e-08 -2.8559066e-10 -1.5645098e-07 8.054252e-06 -1.8837813e-08 4.8999322e-08 -2.9086851e-11 -8.108594e-12
4.640346e-09 9.298481e-10 -2.3070646e-08 -4.126064e-05 -2.0815266e-10 7.2424176e-12 -1.7563435e-10 -4.80132e-06
-1.0540852e-09 1.6938183e-10 -6.9268244e-11 -2.6487472e-11 3.596364e-11 8.1037746e-11 6.437448e-11 1.43992865e-11
-2.0905023e-11 6.8888606e-09 1.1381394e-09 -7.944274e-09 -1.8013974e-07 -2.7387799e-08 -6.6254185e-10 6.469044e-08
2.8900088e-08 2.5734003e-11 -1.8333045e-05 -1.0049966e-06 -2.1901103e-12 4.2222223e-06 -9.948757e-06 7.944227e-11
1.774247e-10 1.5015044e-09 3.1779285e-10 -1.6183174e-12 -1.07431355e-11 -1.0260769e-11 -1.4759728e-05 -3.5719663e-12
3.0661498e-10 4.7397735e-11 -6.0918104e-10 7.091599e-11 2.3779258e-12 -4.4494477e-08 -8.903177e-12 -2.0017105e-06
-7.426102e-05 6.02957e-11 1.0563269e-10 1.3976082e-11 -2.560763e-08 -1.5587991e-06 -9.955312e-08 -6.7678885e-10
-2.5218477e-10 4.0846412e-10 1.135304e-10 2.2453625e-05 1.4959242e-07 -5.155714e-12 1.6206384e-06 -3.0591177e-06
1.4071607e-08 7.8128004e-10 -8.9469925e-12 8.81303e-11 4.1655115e-09 1.05187484e-10 2.4724454e-07 -5.0763482e-09
1.7542928e-10 -4.4237864e-12 -3.9475038e-12 3.6149547e-12 1.9749901e-11 2.0561259e-12 1.5439303e-10 -1.1342644e-05
1.4780964e-07 5.116341e-11 1.4998594e-10 5.08333e-06 5.89389e-10 2.043673e-06 -1.1776986e-07 2.6026895e-10
-4.434807e-07 1.4079135e-09 -3.3176468e-06 2.2553766e-07 2.6382696e-10 -3.0659947e-07 -1.8675224e-10 1.2065914e-07
-4.9240956e-10 -1.9118064e-08 -9.113768e-09 -2.2727566e-08 4.7713666e-10 -1.316753e-07 -2.205398e-09 -2.3678426e-06
1.69974e-08 0.00014715226 4.0854786e-05 -4.5000666e-06 1.0537837e-10 -3.4079e-08 -6.637614e-08 -4.275862e-11
2.4856324e-09 4.4862782e-07 1.7953685e-06 8.674912e-06 1.2439452e-05 5.6710825e-12 2.3396393e-07 2.6043215e-10
-1.0241173e-06 4.3133626e-12 8.0336457e-07 7.750782e-06 -3.792884e-07 -1.110266e-08 8.8825605e-13 -6.621995e-07
-2.2447588e-09 1.6940025e-09 1.923316e-06 -1.2589454e-07 -4.7512407e-05 -4.057923e-06 -5.3741945e-07 -4.340706e-12
1.9107102e-10 -1.04482715e-05 -3.6837818e-07 -6.891763e-12 -2.8678386e-08 3.755025e-10 2.2919056e-07 5.49828e-12
1.3848556e-07 -1.35228955e-11 6.9882127e-09 -4.70499e-12 -3.1721718e-06 2.2099186e-08 -7.99283e-12 1.441384e-11
-3.2486738e-10 0.00020675792 3.612491e-07 -1.0932411e-07 1.5028285e-12 -8.88532e-10 -6.126067e-09 6.3689392e-12
-4.3012833e-12 -2.1978853e-05 1.5797102e-06 -1.5992241e-07 1.4209243e-12 5.670034e-05 1.5241902e-10 3.7660697e-10
-1.0942591e-08 -3.4035372e-12 2.744165e-09 -4.2737973e-11 -4.7754186e-11 -5.3072413e-06 9.5206926e-11 8.252612e-09
00000000: 0e3d 8b2d 94aa 1739 793b 57ac 4517 cdb3
00000010: 4155 1cb0 7406 a933 4fbf 0eae 961d e434
00000020: f128 79ac cb0c 3536 422b bcac 4283 c4ae
00000030: 6a50 2034 d4b4 00ae 5a7b 9b2b df4d dd30
00000040: 3f6c 74ac 9952 5e32 cdb6 0dad 0559 5f38
00000050: 3a9d d536 1519 08b5 c8c8 48ae f8e6 502d
00000060: 8fe9 99b2 dadd 6c36 0d80 ca31 5de9 8d38
00000070: 3865 0637 7ea6 80ad 7470 ed32 041b b9b1
00000080: 5e47 cbb1 df78 6134 3fcb e32c 4c9d 9e31
00000090: 8081 6a31 97c5 2a2c c39a 67ad 176b c02c
000000a0: ddda 102e e33e cc36 6da8 8bb5 3c5d f1ad
000000b0: 09f1 bab3 774c 472e a582 11b4 8031 d8b6
000000c0: b7f7 9533 54f4 b42c ca9d 06b2 261a bb2e
000000d0: 2d6c 4a2d 04e7 482d 77e0 8631 0680 fd34
000000e0: e147 f835 a36a e5ab 6efc c42e ac38 3fae
000000f0: 04d2 b02b 9dd5 cbae 9ef2 a12f 7dba 41b4
00000100: d4bc e8b1 e51e 48b4 14ed 5b2f 9636 afb7
00000110: ca69 be31 5850 84b7 fa41 e72d 6110 10b6
00000120: 053a 8e33 5001 9daf ebfc 27b4 c020 0737
00000130: cad0 a1b2 5373 5233 c4d9 ffad dca5 0ead
00000140: ea70 9f31 3e98 7f30 e32c c6b2 460f 2db8
00000150: c4dd 64af e6d1 fe2c ad1c 41af 061b a1b6
00000160: 53df 90b0 bf3c 3a2f 8e52 98ae 7cfc e8ad
00000170: 752b 1e2e 3234 b22e 9c8f 8d2e 9f50 7d2d
00000180: ede1 b7ad 0fb3 ec31 b86c 9c30 497b 08b2
00000190: 6f6c 41b4 6842 ebb2 3d1e 36b0 f2eb 8a33
000001a0: f73f f832 d35b e22d eac9 99b7 6ce3 86b5
000001b0: 851d 1aac 9dac 8d36 96e9 26b7 06b2 ae2e
000001c0: 9d14 432f 7d5d ce30 5eb5 ae2f 07c2 e3ab
000001d0: c8fe 3cad 6582 34ad 8da0 77b7 d35a 7bac
000001e0: 3990 a82f 1b75 502e 4e73 27b0 27f2 9b2e
000001f0: e754 272c 321a 3fb3 58a0 1cad 2055 06b6
00000200: 95bc 9bb8 7697 842e eb49 e82e adde 752d
00000210: c6f7 dbb2 ee37 d1b5 e8c9 d5b3 c808 3ab0
00000220: daa3 8aaf 378e e02f efa7 f92e cb5a bc37
00000230: a79f 2034 8b66 b5ac b684 d935 3e4b 4db6
00000240: 95bf 7132 b2c1 5630 ac65 1dad f3cc c12e
00000250: 3a20 8f31 4a4f e72e 08bd 8434 086c aeb1
00000260: f4e2 402f eda5 9bac f4e3 8aac 3c61 7e2c
00000270: d3b8 ad2d dfaf 102c c6c1 292f 494c 3eb7
00000280: 9bb5 1e34 e104 612e 4ae9 242f 7991 aa36
00000290: 9002 2230 0926 0936 aae8 fcb3 9915 8f2f
000002a0: 8617 eeb4 8d80 c130 bda4 5eb6 522b 7234
000002b0: 580a 912f b69a a4b4 1556 4daf 888e 0134
000002c0: 3e5a 07b0 1139 a4b2 c792 1cb2 723a c3b2
000002d0: 8227 0330 a262 0db4 c68d 17b1 3ae7 1eb6
000002e0: ae01 9232 e24c 1a39 7e5b 2b38 47ff 96b6
000002f0: c0ba e72e 425e 12b3 ab8a 8eb3 ed0d 3cae
00000300: b5cf 2a31 f0da f034 64f8 f035 778a 1137
00000310: 0ab3 5037 9288 c72c 8437 7b34 912c 8f2f
00000320: 6774 89b5 51c3 972c cba6 5735 5b09 0237
00000330: 00a1 cbb4 04be 3eb2 9805 7a2b 01c2 31b5
00000340: 3742 1ab1 6ad2 e830 5112 0136 a12d 07b4
00000350: 0f48 47b8 4b29 88b6 2f43 10b5 9bb9 98ac
00000360: b615 522f fc4a 2fb7 83c5 c5b4 7c7b f2ac
00000370: 7058 f6b2 476f ce2f 6c17 7634 1b74 c12c
00000380: 9fb2 1434 b5e5 6dad f81c f031 c88a a5ac
00000390: 7fe1 54b6 a0d4 bd32 829c 0cad 2a92 7d2d
000003a0: 0599 b2af 28cd 5839 b3f1 c134 91c5 eab3
000003b0: 1a81 d32b e23c 74b0 757d d2b1 4e16 e02c
000003c0: 8456 97ac 3a5f b8b7 6e06 d435 23b7 2bb4
000003d0: 31fa c72b 87d1 6d38 2496 272f b80a cf2f
000003e0: 06fe 3bb2 ad80 6fac dc93 3c31 aef6 3bae
000003f0: 6f06 52ae db14 b2b6 bc5c d12e 5fc7 0d32

fc2.bias f4 [300]
1.2217037e-06 -1.8419103e-08 2.7013304e-08 5.7864986e-06 -3.693722e-05 3.1237124e-09 4.662814e-06 -2.0750287e-05
1.0780248e-06 1.3893799e-09 2.9440997e-08 9.678838e-10 1.0440962e-05 3.348335e-10 -1.8609282e-07 -1.6171592e-07
1.6214674e-06 8.614683e-09 3.27507e-08 1.3950812e-07 4.066322e-08 1.4264554e-05 -4.028727e-06 -3.7340815e-05
-5.142704e-06 -1.1635017e-05 3.1752056e-06 9.301734e-09 1.0955892e-07 2.126491e-06 -1.2296673e-06 7.454476e-05
8.132505e-06 -1.1817442e-07 -7.8864355e-09 2.6508e-06 -1.08486e-08 -1.6333479e-07 1.9085602e-09 -6.5006023e-10
1.013158e-09 -4.5431218e-08 4.093923e-06 -2.1712813e-08 7.792941e-09 -3.988029e-07 -4.6773286e-07 -1.2156331e-06
-5.9276967e-08 -0.00014492779 -7.414156e-06 0.00016338247 1.0938923e-05 -1.5227267e-08 -8.8808576e-07 4.9713717e-06
-9.695962e-09 1.056401e-06 9.69924e-06 -5.458158e-07 3.3846007e-07 -1.818125e-06 -2.4901703e-09 -1.3154973e-05
4.9993437e-10 -9.7606305e-11 2.1672078e-05 -9.254923e-09 2.6448683e-06 0.00014496777 -5.3114302e-08 3.409364e-08
-1.1321748e-05 3.4825985e-05 2.3366985e-08 3.375345e-08 1.1635563e-08 8.5516485e-06 -1.1500204e-05 -2.0425567e-08
3.0432999e-05 1.013036e-05 -9.890526e-09 8.814241e-08 -1.0720366e-05 -5.216074e-08 3.149758e-05 2.2720081e-09
-2.1325945e-05 5.1979545e-09 4.2172684e-07 -2.8259744e-06 -2.4459851e-08 -1.4410161e-05 -4.750208e-06 -2.7553035e-06
7.3598458e-06 -6.2876065e-06 -6.186227e-06 -0.0001378878 9.173629e-08 2.421106e-08 -1.13377276e-07 1.1539003e-06
6.666729e-08 -4.5541867e-05 1.82227e-07 -7.5281775e-07 8.097962e-09 -9.476413e-07 1.0051286e-05 5.1749975e-08
4.7816823e-08 4.0421397e-10 3.02595e-07 3.8366907e-06 4.2494867e-07 4.6717037e-06 -4.180565e-08 2.8155027e-09
1.998394e-06 1.7381816e-09 -1.15721175e-08 2.4808549e-05 -4.071205e-06 -1.5868509e-06 7.644505e-07 -4.7241187e-07
-1.6804784e-09 5.3195257e-05 6.4152796e-06 8.793032e-09 -9.962214e-08 4.3956266e-08 0.00010217482 -2.0668452e-08
-0.00010800321 -6.3699586e-06 7.440999e-07 5.7167433e-08 -3.445785e-08 -4.185503e-09 7.2133645e-08 -1.5887732e-05
-9.665275e-09 4.2472843e-09 -3.702621e-07 2.3759105e-05 2.370022e-07 -1.1271275e-09 -3.8888953e-05 2.618504e-05
9.243311e-09 -8.114738e-07 5.6363947e-10 6.177274e-07 -6.0670324e-08 1.5455932e-08 -3.5561534e-08 -1.3533914e-11
-2.1150758e-08 6.52941e-06 2.9728708e-08 4.2530365e-07 -1.7270837e-07 2.9635459e-09 4.4346754e-07 2.300858e-07
-7.83547e-09 -1.8232284e-07 4.18939e-07 1.8467627e-07 -8.2904684e-08 -1.3066104e-05 -5.18892e-06 -2.149535e-06
7.94271e-07 6.4265397e-09 1.9517225e-08 -1.5703726e-10 2.209449e-05 9.122555e-09 -5.3292794e-08 -6.8426864e-09
1.4771141e-06 -1.1717486e-09 -2.672916e-06 -3.967012e-08 -6.886725e-06 2.964385e-06 2.8795023e-06 -6.010886e-09
1.4435415e-06 -2.2888496e-09 1.8323359e-05 -3.298445e-08 -8.083623e-08 3.3907406e-07 1.321789e-09 -2.7486685e-05
-6.901331e-05 -2.7870367e-06 1.0455675e-06 -1.2431854e-05 -1.670437e-08 -1.2129007e-05 7.3251117e-06 -3.407391e-08
-1.5067722e-09 -1.1518983e-08 7.885924e-05 1.9361201e-05 -0.00010813287 5.9371234e-07 -8.099504e-06 4.668209e-05
2.7239115e-05 1.6359115e-08 8.279161e-07 3.7452406e-08 5.836249e-08 -2.6297906e-07 1.1673096e-06 6.6899464e-09
5.1155716e-08 -2.5969449e-09 -3.9778076e-08 -4.4796362e-08 -1.1958731e-05 5.417341e-06 -1.9370922e-05 -5.5645915e-09
-8.974109e-06 -5.471464e-06 8.3782865e-09 -2.5014997e-06 5.0795785e-09 -3.072467e-08 1.6567043e-05 -0.00013083105
-3.9324477e-10 -3.327036e-05 9.35563e-10 -6.552239e-06 -2.654659e-05 2.8143104e-08 -2.9017514e-05 3.597794e-07
4.130592e-05 1.70649e-06 8.968874e-08 3.9404604e-05 1.1949247e-07 1.6064917e-06 5.6129032e-08 7.76238e-08
00000000: 6bf9 a335 0938 9eb2 e20a e832 a529 c236
00000010: 0aed 1ab8 eea8 5631 4475 9c36 e710 aeb7
00000020: a6b0 9035 76f4 be30 70e5 fc32 6206 8530
00000030: 972b 2f37 a013 b82f ced0 47b4 22a4 2db4
00000040: 32a1 d935 c7ff 1332 c7a9 0c33 b3cb 1534
00000050: afa5 2e33 cb51 6f37 802e 87b6 659e 1cb8
00000060: 7e8f acb6 0434 43b7 9e15 5536 75cd 1f32
00000070: a746 eb33 d6b4 0e36 0c0b a5b5 ea54 9c38
00000080: d870 0837 13c7 fdb3 e97c 07b2 66e4 3136
00000090: a660 3ab2 2061 2fb4 bf27 0331 ecaf 32b0
000000a0: 543f 8b30 2720 43b3 885e 8936 fb82 bab2
000000b0: b8e1 0532 0e1b d6b4 b71c fbb4 d628 a3b5
000000c0: b797 7eb3 c2f7 17b9 1dc7 f8b6 a651 2b39
000000d0: 5186 3737 1dcd 82b2 ca64 6eb5 c2cf a636
000000e0: 4b93 26b2 a9c9 8d35 ebb9 2237 2d84 12b5
000000f0: 99b5 b534 4d06 f4b5 8a1f 2bb1 2eb4 5cb7
00000100: c16b 0930 77a3 d6ae 6fcc b537 95ff 1eb2
00000110: 7e7e 3136 7d02 1839 cb1f 64b3 5b6e 1233
00000120: 8af2 3db7 1e12 1238 8bb8 c832 50f8 1033
00000130: bfe5 4732 0d79 0f37 00f1 40b7 4c74 afb2
00000140: 5e4a ff37 91f5 2937 feea 29b2 cd48 bd33
00000150: 9fdb 33b7 5707 60b3 451c 0438 9721 1c31
00000160: 1ee5 b2b7 b199 b231 b269 e234 dfa5 3db6
00000170: c81b d2b2 2cc3 71b7 fa63 9fb6 c1e7 38b6
00000180: 98f4 f636 21fa d2b6 4993 cfb6 f995 10b9
00000190: 8f00 c533 aff8 cf32 d179 f3b3 b6df 9a35
000001a0: bb2a 8f33 3504 3fb8 2daa 4334 3e15 4ab5
000001b0: 371f 0b32 6a61 7eb5 f2a1 2837 b343 5e33
000001c0: 275f 4d33 0f38 de2f 5774 a234 ecbc 8036
000001d0: 8024 e434 a1c1 9c36 cc8d 33b3 d97a 4131
000001e0: 261c 0636 d4e4 ee30 b6ce 46b2 f41b d037
000001f0: 629b 88b6 c8fb d4b5 a334 4d35 cb9f fdb4
00000200: 94f6 e6b0 f91d 5f38 d542 d736 2a10 1732
00000210: daef d5b3 6dca 3c33 b046 d638 688a b1b2
00000220: c87f e2b8 87bd d5b6 28be 4735 4288 7533
00000230: cffe 13b3 13d0 8fb1 e4e7 9a33 a546 85b7
00000240: 540c 26b2 82ef 9131 6fc8 c6b4 4a4e c737
00000250: ab7a 7e34 46e9 9ab0 b21c 23b8 f2a7 db37
00000260: 83cc 1e32 0ed4 59b5 9aee 1a30 e7d1 2535
00000270: dd49 82b3 f4c3 8432 52bc 18b3 5417 6ead
00000280: 02af b5b2 3417 db36 1f5e ff32 4a55 e434
00000290: b771 39b4 40a7 4b31 b715 ee34 810d 7734
000002a0: c39c 06b2 85c4 43b4 8aea e034 6d4b 4634
000002b0: 5509 b2b3 7d36 5bb7 7c1c aeb6 bb40 10b6
000002c0: e335 5535 71d0 dc31 d5a6 a732 0faa 2caf
000002d0: 8e57 b937 6cb9 1c32 0ce4 64b3 e81c ebb1
000002e0: 4141 c635 3d0b a1b0 5960 33b6 c261 2ab3
000002f0: 8414 e7b6 bfef 4636 793d 4136 5088 ceb1
00000300: b5bf c135 de49 1db1 1db5 9937 c9aa 0db3
00000310: 3098 adb3 fc09 b634 51aa b530 3593 e6b7
00000320: 3dbb 90b8 ed08 3bb6 6d55 8c35 6892 50b7
00000330: 4c7d 8fb2 b07d 4bb7 3bca f536 a958 12b3
00000340: d516 cfb0 06e5 45b2 3b61 a538 dd69 a237
00000350: 64c5 e2b8 9a5f 1f35 1be3 07b7 83cc 4338
00000360: 8e7f e437 1386 8c32 f63d 5e35 5bdb 2033
00000370: 3daa 7a33 912f 8db4 74ac 9c35 64dd e531
00000380: 4eb6 5b33 f075 32b1 75d8 2ab3 1f66 40b3
00000390: 5ca2 48b7 9bc6 b536 bd7e a2b7 aa32 bfb1
000003a0: 818f 16b7 8597 b7b6 18f0 0f32 70df 27b6
000003b0: 7288 ae31 22f6 03b3 74f9 8a37 b12f 09b9
000003c0: 4830 d8af c78b 0bb8 3295 8030 4edb dbb6
000003d0: 5eb0 deb7 57bf f132 a36a f3b7 b427 c134
000003e0: e53f 2d38 8d0a e535 e89a c033 5f46 2538
000003f0: d74d 0034 a29e d735 8612 7133 23b2 a633

fc3.weight f4 [128, 300]
2.8593264e-05 -2.405351e-10 8.4555823e-10 -1.6394996e-12 1.8755777e-08 -1.2914708e-08 -1.2053588e-09 9.714627e-09
8.755654e-06 2.1063047e-07 -2.4040395e-07 1.9577989e-10 1.1375691e-09 1.2683493e-08 8.69024e-09 -2.4391841e-11
1.4377065e-06 -1.2339027e-10 5.5745145e-06 -1.0424696e-08 4.516638e-07 -2.6794894e-11 1.6144476e-12 9.990804e-07
-1.1948275e-05 -6.3202212e-09 1.1613041e-10 -1.6703692e-07 -8.772595e-06 -0.00013882351 1.0864622e-06 3.916717e-09
-7.610865e-09 -0.00010704017 5.4192253e-07 -1.04677704e-10 3.6122893e-07 4.4791926e-09 4.4511004e-09 5.433372e-07
-4.1303796e-09 1.9282712e-08 -5.5450524e-09 1.09944756e-08 -1.5927955e-09 3.6453727e-08 2.0575317e-08 -5.7559265e-07
4.859689e-10 -1.0427487e-09 -9.134037e-10 -1.9157659e-08 -1.2979591e-06 9.7891494e-08 -3.2298457e-09 1.1100472e-08
-1.174808e-10 -5.2949467e-10 -3.0056493e-10 -1.5046112e-10 9.350623e-06 8.051623e-11 -3.8583585e-05 -1.28398225e-08
5.928574e-07 -1.7085167e-08 -1.2865401e-09 1.4961511e-10 -1.5755287e-10 8.9130855e-11 -2.0905777e-07 -5.1961097e-06
-1.9528958e-05 -1.2407275e-10 1.10052e-06 3.5453368e-07 3.9071207e-10 -1.667139e-05 -8.658745e-08 -5.670862e-11
5.013253e-08 4.674134e-09 3.8877834e-10 8.066008e-10 -2.3455822e-11 -2.9034908e-07 -2.3843355e-10 -2.1723054e-08
-3.3659672e-11 -5.648875e-10 2.152045e-11 -2.4160306e-11 1.1315526e-11 8.448254e-11 2.7364757e-07 -3.7037886e-08
-2.5052949e-09 9.5760504e-11 -9.960121e-07 2.4249362e-06 -3.907025e-10 8.904299e-09 1.9455655e-08 1.3691854e-09
6.5012905e-11 -1.4838851e-10 -2.0032802e-07 -4.012076e-09 1.6306584e-10 -1.03384855e-05 -2.1858921e-09 3.5783224e-11
-1.2378472e-07 1.7815721e-09 1.3949763e-06 1.1618696e-07 1.8287314e-05 1.0591466e-05 -3.083958e-08 -1.0710901e-08
-2.4344088e-11 7.2440903e-10 8.955214e-09 5.1036957e-12 1.5558329e-09 5.5407195e-10 -2.2725899e-05 -1.4574726e-07
6.01089e-07 8.0329265e-13 -4.9491106e-10 2.1906315e-07 -2.1231218e-08 -5.7550625e-07 -1.41041285e-08 -1.2218319e-08
-7.555502e-08 -1.3945929e-10 -3.0566152e-10 -2.2466436e-08 -4.1031182e-08 8.507362e-10 -1.7338965e-06 3.936727e-09
-1.5246837e-09 -1.0669044e-08 -6.088865e-10 8.62707e-07 -1.6739328e-08 5.988744e-06 -7.2126487e-09 -5.762546e-07
-8.832874e-11 -7.540064e-10 -7.591741e-10 -8.023457e-11 -8.9180247e-10 1.0959621e-08 1.9636573e-08 1.0565315e-05
3.0666329e-06 2.52682e-08 -7.237611e-11 3.7744569e-10 7.9603495e-08 -1.277154e-07 -2.6187335e-08 3.7523473e-10
-1.3792364e-07 -3.9947778e-10 -1.729919e-08 2.1176887e-09 -1.9947441e-11 7.3482155e-08 -1.2875894e-09 2.3827362e-10
4.7216105e-07 -7.725921e-08 1.2119191e-06 -1.2080735e-10 9.168716e-10 -7.894117e-07 7.900332e-11 -1.6863914e-09
-5.1417164e-09 -7.636043e-07 3.112062e-08 2.360423e-08 2.146075e-05 1.2839094e-08 2.5843603e-11 1.7696948e-09
-2.772944e-10 1.3484143e-10 -1.6983005e-07 4.798598e-10 1.2504285e-09 -1.2318167e-08 -9.521632e-08 -2.6436924e-09
-8.633221e-09 -3.3406438e-06 1.1744783e-08 -5.078641e-08 -5.6557408e-09 5.839568e-11 -1.4888708e-07 -6.3843736e-08
1.5328782e-11 1.31888e-10 -8.70449e-07 1.892486e-12 4.8175477e-11 -4.223264e-07 -5.6423772e-09 1.8176243e-05
-4.6012547e-06 7.740695e-07 -1.6064651e-09 3.978954e-09 -6.419036e-11 -1.8662064e-10 -3.0527427e-09 -2.5425056e-06
-5.8516285e-09 3.9755865e-09 2.9358592e-11 -6.3408083e-07 1.2182982e-10 8.6379466e-11 -6.7070705e-09 -1.4523576e-08
-7.4269915e-09 5.9371214e-08 3.158633e-10 -1.7879074e-08 -5.4105136e-08 5.270184e-10 1.7865139e-09 1.1637538e-06
-1.7237608e-07 -1.5057345e-09 -3.4174559e-09 2.016995e-08 -3.737119e-11 -7.896872e-06 -1.1962977e-07 -1.0675764e-07
-6.095059e-12 -4.702258e-08 -1.5591857e-10 -6.388636e-08 1.2810498e-06 2.602949e-07 4.1171635e-08 -3.291692e-07
00000000: 91db ef37 4e3c 84af df6c 6830 33bd e6ab
00000010: 641c a132 7ddf 5db2 cba9 a5b0 62e5 2632
00000020: 3fe5 1237 aa29 6234 de10 81b4 2443 572f
00000030: a858 9c30 98e6 5932 144c 1532 8b8d d6ad
00000040: 38f7 c035 46ab 07af b70c bb36 4c18 33b2
00000050: 337c f234 bdb0 ebad 9b36 e32b 2418 8635
00000060: 7375 48b7 4129 d9b1 9c5f ff2e c25a 33b4
00000070: 022e 13b7 2791 11b9 8fd2 9135 cf93 8631
00000080: f0c0 02b2 c17a e0b8 a278 1135 4f30 e6ae
00000090: edee c134 65e7 9931 4bf0 9831 d9d9 1135
000000a0: 34eb 8db1 22a3 a532 cc86 beb1 37e2 3c32
000000b0: 82e9 dab0 4c91 1c33 9abd b032 6d82 1ab5
000000c0: 0595 0530 7550 8fb0 1213 7bb0 2390 a4b2
000000d0: 8935 aeb5 6b38 d233 0cf4 5db1 64b4 3e32
000000e0: e82b 01af e08b 11b0 c13c a5af 0a6f 25af
000000f0: 9fe0 1c37 9c0e b12e cfd4 21b8 2396 5cb2
00000100: da24 1f35 aec2 92b2 1bd2 b0b0 e980 242f
00000110: 313b 2daf 3600 c42e 5d79 60b4 3e5a aeb6
00000120: 1ed2 a3b7 606b 08af 94b5 9335 bd56 be34
00000130: d6cb d62f 8ad9 8bb7 f4f1 b9b3 3b68 79ae
00000140: 4d51 5733 1e9a a031 b0bb d52f 7cb7 5d30
00000150: d151 cead 46e1 9bb4 8a14 83af 8099 bab2
00000160: 6c09 14ae 6d46 1bb0 bf4b bd2d 2c84 d4ad
00000170: 9910 472d 71c7 b92e d6e9 9234 9613 1fb3
00000180: 9d29 2cb1 5f94 d22e b7ae 85b5 16bc 2236
00000190: 7dca d6af 85f9 1832 701f a732 ee2d bc30
000001a0: 03f7 8e2e a727 23af bf19 57b4 98da 89b1
000001b0: f44a 332f 7573 2db7 9f36 16b1 5460 1d2e
000001c0: afe9 04b4 7fdb f430 053b bb35 7582 f933
000001d0: b567 9937 00b2 3137 7a74 04b3 0a03 38b2
000001e0: 0322 d6ad c11f 4730 73d9 1932 0192 b32c
000001f0: 01d5 d530 594d 1830 7fa3 beb7 b47e 1cb4
00000200: 865a 2135 561b 622b 450a 08b0 9f37 6b34
00000210: f15f b6b2 7d7c 1ab5 9d4e 72b2 bce8 51b2
00000220: d040 a2b3 4d56 19af 090a a8af 37fc c0b2
00000230: 433a 30b3 3dd9 6930 3bb8 e8b5 d143 8731
00000240: 0a8d d1b0 f44a 37b2 945e 27b0 c694 6735
00000250: 2cca 8fb2 ebf2 c836 21d3 f7b1 eaaf 1ab5
00000260: a93c c2ae 7c42 4fb0 21ae 50b0 0c70 b0ae
00000270: 0523 75b0 ec48 3c32 48ad a832 af41 3137
00000280: 5acc 4d36 5c0d d932 2128 9fae c280 cf2f
00000290: 7cf2 aa33 2422 09b4 8ff2 e0b2 9849 ce2f
000002a0: 2918 14b4 809d dbaf 5299 94b2 c686 1131
000002b0: a575 afad 3ecd 9d33 06f7 b0b0 08fe 822f
000002c0: 527d fd34 b3e9 a5b3 39a9 a235 3fd4 04af
000002d0: 1a07 7c30 f5e7 53b5 eaba ad2e 9fc6 e7b0
000002e0: 04ab b0b1 7dfa 4cb5 7ca9 0533 40c2 ca32
000002f0: 9c06 b437 ef92 5c32 9f52 e32d 9a39 f330
00000300: b871 98af 7d42 142f 875a 36b4 22e7 0330
00000310: 8bdb ab30 df9f 53b2 ba79 ccb3 54ac 35b1
00000320: 4f51 14b2 d32f 60b6 1ac6 4932 4020 5ab3
00000330: 6c54 c2b1 d869 802e c5dd 1fb4 771a 89b3
00000340: 59d5 862d 2c03 112f cda8 69b5 ff2b 052c
00000350: c4e0 532e 19bc e2b4 e0de c1b1 2f79 9837
00000360: 7a64 9ab6 a7c9 4f35 77ca dcb0 40b7 8831
00000370: f627 8dae 0a31 4daf 6bc8 51b1 ea9f 2ab6
00000380: 780f c9b1 a199 8831 d61e 012e b435 2ab5
00000390: 0cf4 052f 51f3 bd2e 0474 e6b1 5d83 79b2
000003a0: 8230 ffb1 57ff 7e33 cfa5 ad2f 8094 99b2
000003b0: 3a61 68b3 9fdd 1030 5f89 f530 4732 9c35
000003c0: 6016 39b4 53f2 ceb0 85d8 6ab1 3042 ad32
000003d0: 385c 24ae cf7c 04b7 9573 00b4 a242 e5b3
000003e0: 6973 d6ac e0f5 49b3 2d6f 2baf e631 89b3
000003f0: 89f0 ab35 a9be 8b34 b1d4 3033 acb8 b0b4

fc3.bias f4 [128]
-5.2744703e-08 1.5658084e-06 -1.5476584e-08 -6.3348452e-06 1.0053645e-09 -3.1111453e-05 2.3185582e-07 -5.582451e-05
8.6088285e-08 1.308753e-06 8.8661466e-07 -5.9816646e-10 1.378074e-10 -8.83405e-07 6.707207e-07 1.9600255e-05
1.8759788e-07 -5.8236463e-05 1.2147708e-06 -2.1458645e-08 -6.120187e-07 -1.813028e-06 9.9592e-09 2.2337303e-09
-1.5202955e-06 -7.919715e-09 1.0354824e-08 8.314506e-06 -3.5986558e-10 -1.2716227e-05 1.4473163e-05 -2.6414131e-08
1.9258316e-08 -3.152692e-05 8.3190976e-10 -6.855292e-07 1.1277826e-07 -5.3342607e-08 1.9514148e-06 1.8681252e-05
1.4457876e-06 2.8819196e-08 -2.4253602e-08 -2.3867932e-07 -1.7944857e-06 -1.42791805e-05 1.5718582e-07 -6.354046e-07
-9.890502e-11 1.9394598e-05 -2.152973e-06 7.821289e-06 -1.858772e-07 1.3056588e-08 -8.148017e-09 1.1117868e-06
1.1217202e-07 -2.7434262e-06 -3.6241339e-09 1.9915188e-08 4.0725332e-08 -3.5631504e-07 -1.8568016e-07 -6.383604e-06
-8.4942976e-11 1.3608498e-05 4.1819726e-07 3.2524185e-06 -6.538404e-10 8.436964e-06 1.7681799e-06 1.3016891e-09
-1.9073217e-07 -3.2244003e-08 1.0488543e-07 -2.0466143e-06 -4.370825e-08 -4.179069e-06 7.309966e-09 5.56636e-09
-3.9108548e-07 3.194213e-06 -1.1655252e-07 -3.5890723e-06 7.358969e-10 -1.4495338e-05 -2.1901615e-06 3.911048e-08
-1.7352257e-06 1.3384122e-09 2.3507937e-05 -2.1305293e-06 -7.222183e-06 1.7884108e-07 -6.542905e-09 8.238224e-06
3.1435102e-06 9.937397e-06 5.744652e-05 -6.63788e-09 -1.1706453e-05 -1.2135034e-06 2.588547e-09 -4.6915957e-06
4.0048913e-06 -5.1373877e-07 8.892951e-07 1.1373115e-06 3.5566692e-09 -5.3457583e-08 -1.3980848e-08 2.2349357e-06
-1.1119829e-06 -9.365483e-09 -1.3961192e-05 -4.1704553e-08 7.1337854e-06 -7.4481736e-06 1.4458785e-08 7.055964e-05
-1.3791568e-07 -1.0482562e-06 -2.9712854e-05 1.9616132e-10 -7.108998e-07 3.4296447e-06 -3.8356094e-07 1.9601068e-05
00000000: 6a89 62b3 c428 d235 5ef1 84b2 e88f d4b6
00000010: 1e2d 8a30 ab7d 02b8 0bf4 7834 1c25 6ab8
00000020: 89df b833 69a8 af35 b2ff 6d35 396c 24b0
00000030: 5685 172f 2123 6db5 930b 3435 3a6b a437
00000040: 836e 4934 ed42 74b8 350b a335 0f54 b8b2
00000050: 9b49 24b5 2b57 f3b5 0619 2b32 3380 1931
00000060: f50c ccb5 460f 08b2 ffe4 3132 887e 0b37
00000070: 94d6 c5af c757 55b7 c3d1 7237 4ae5 e2b2
00000080: 7c6d a532 c63b 04b8 72ac 6430 3505 38b5
00000090: 8130 f233 d11a 65b3 0df5 0236 afb5 9c37
000000a0: e20c c235 158e f732 3c56 d0b2 d623 80b4
000000b0: 0fda f0b5 9d90 6fb7 e9c6 2834 ac90 2ab5
000000c0: 947e d9ae 95b1 a237 cb7b 10b6 2e38 0337
000000d0: 8995 47b4 7b4f 6032 5cfb 0bb2 b438 9535
000000e0: 38e3 f033 b41b 38b6 700c 79b1 f611 ab32
000000f0: fae9 2e33 914b bfb4 605f 47b4 be32 d6b6
00000100: a5ca baae 0e50 6437 9884 e034 2044 5a36
00000110: eeb9 33b0 7c8c 0d37 3352 ed35 1de7 b230
00000120: 0fcc 4cb4 a87c 0ab3 603d e133 9158 09b6
00000130: bbb9 3bb3 ee39 8cb6 242b fb31 3842 bf31
00000140: 61f6 d1b4 295c 5636 6d4b fab3 cbdb 70b6
00000150: 2448 4a30 0131 73b7 b0fa 12b6 6dfa 2733
00000160: e7e5 e8b5 31f3 b730 e932 c537 37fa 0eb6
00000170: 1456 f2b6 7607 4034 00d0 e0b1 e736 0a37
00000180: 18f5 5236 ccb8 2637 bbf2 7038 6913 e4b1
00000190: d566 44b7 a9df a2b5 33e2 3131 806c 9db6
000001a0: c161 8636 dce7 09b5 e5b7 6e35 baa5 9835
000001b0: 9669 7431 3c99 65b3 6b30 70b2 e7fb 1536
000001c0: 713f 95b5 d4e5 20b2 dd3a 6ab7 a41e 33b3
000001d0: c05e ef36 53eb f9b6 6966 7832 6bf9 9338
000001e0: f915 14b4 cfb1 8cb5 de3f f9b7 81ae 572f
000001f0: aad4 3eb5 d928 6636 37ec cdb4 f96c a437

fc4.weight f4 [1, 128]
-4.842454e-09 -1.5477714e-06 -6.8520842e-09 2.960155e-05 6.4050703e-09 -6.405481e-05 2.2561001e-07 2.6754282e-07
-2.6106412e-07 -1.3430098e-06 -9.931024e-07 -4.5903823e-09 -1.6840142e-09 -2.5880945e-07 -8.986252e-06 4.1741947e-05
-1.9502802e-07 3.9617233e-05 1.0968416e-06 4.4001087e-08 1.9561737e-06 6.685958e-06 -8.141168e-09 -5.990504e-09
8.4677333e-07 -7.74442e-09 3.4044998e-08 -4.4137782e-06 -2.9086469e-09 9.222749e-06 -1.5740923e-05 -5.094291e-08
-1.2350863e-08 -1.0900613e-05 -1.6713257e-09 5.754937e-08 3.084532e-08 3.4933237e-08 -4.81058e-07 2.4994812e-05
-1.0954544e-06 -4.78249e-08 2.2450784e-08 -5.6624295e-08 4.6390705e-06 8.968495e-06 -9.116754e-08 4.1200542e-07
-2.2770452e-09 -3.8328395e-05 1.8893072e-06 7.627255e-06 4.818616e-08 -2.7430639e-08 3.1562615e-07 9.963829e-07
-3.4577145e-08 -3.8215717e-06 -5.515667e-08 1.6408201e-08 -3.5978278e-08 -3.9116253e-07 7.1862246e-08 1.4843582e-05
-4.180867e-09 -2.0511081e-05 -1.5002515e-06 3.5450737e-06 3.5549206e-09 8.920803e-06 -6.692075e-07 6.0032946e-08
7.1278733e-10 5.957451e-08 -9.812807e-08 5.225633e-06 -2.4283786e-08 -3.1946036e-06 -4.2835442e-08 1.0307936e-09
-4.865996e-07 5.9695817e-06 -5.1228405e-08 -1.917627e-06 6.557493e-10 1.2389786e-06 4.2693464e-06 1.02019236e-07
6.418171e-07 -1.2614403e-08 4.4403305e-06 4.3882983e-06 -1.1466615e-05 1.15022864e-07 8.568587e-09 -8.34612e-06
1.9790502e-06 3.6618516e-05 -0.00013350647 -5.2657935e-08 -3.5233687e-05 6.760543e-06 8.964843e-10 -1.7415829e-05
-2.2255513e-06 6.624276e-07 -9.0819785e-06 -3.5252992e-07 -4.2364356e-10 7.886282e-09 -1.060659e-07 -4.7869803e-06
-8.96734e-07 3.2669433e-08 -2.6525953e-05 -3.383559e-08 -1.1035753e-05 8.787701e-06 4.025509e-09 -8.0696576e-05
-1.7818799e-08 3.9589915e-07 -1.2176285e-05 -1.2025636e-08 5.360227e-08 -2.5316635e-06 5.197821e-07 -1.9283736e-05
00000000: ad62 a6b1 05bd cfb5 926f ebb1 d850 f837
00000010: 9813 dc31 2a55 86b8 353f 7234 cea2 8f34
00000020: 6128 8cb4 7741 b4b5 bd4a 85b5 6eb9 9db1
00000030: fb72 e7b0 80f2 8ab4 a9c3 16b7 1314 2f38
00000040: e568 51b4 ae2a 2638 3137 9335 b5fb 3c33
00000050: cf46 0336 f157 e036 3cdd 0bb2 08d5 cdb1
00000060: d24d 6335 520c 05b2 df38 1233 111a 94b6
00000070: 75e1 47b1 68bb 1a37 600b 84b7 52cc 5ab3
00000080: ac2f 54b2 c7e1 36b7 8cb4 e5b0 342c 7733
00000090: ca7a 0433 8009 1633 0e22 01b5 f3ab d137
000000a0: 8707 93b5 0968 4db3 ccd9 c032 1233 73b3
000000b0: 50a9 9b36 6577 1637 e3c7 c3b3 9831 dd34
000000c0: 347a 1cb1 cdc2 20b8 1a94 fd35 9fed ff36
000000d0: 3ef5 4e33 9da0 ebb2 5473 a934 75bb 8535
000000e0: f981 14b3 0d3b 80b6 66e5 6cb3 04f2 8c32
000000f0: 8986 1ab3 f800 d2b4 b052 9a33 b308 7937
00000100: 4ca7 8fb1 360f acb7 405c c9b5 e7e7 6d36
00000110: d34a 7431 8faa 1537 97a3 33b5 76eb 8033
00000120: f3ed 4330 dede 7f33 7aba d2b3 d857 af36
00000130: 9c98 d0b2 df62 56b6 11fa 37b3 d3ab 8d30
00000140: df9e 02b5 514e c836 3a06 5cb3 95b0 00b6
00000150: 4140 3430 fb4a a635 6841 8f36 ab15 db33
00000160: 5649 2c35 bbb6 58b2 26fe 9436 323f 9336
00000170: bd60 40b7 7d02 f733 0b35 1332 5006 0cb7
00000180: d3cf 0436 d596 1938 dffd 0bb9 032a 62b3
00000190: e2c7 13b8 9fd8 e236 796c 7630 3518 92b7
000001a0: ae5a 15b6 aed1 3135 cd5e 18b7 5843 bdb4
000001b0: 88e6 e8af 3c7c 0732 58c6 e3b3 d99f a0b6
000001c0: 17b7 70b5 6c50 0c33 0d84 deb7 a052 11b3
000001d0: 3326 39b7 e36e 1337 c050 8a31 a53b a9b8
000001e0: f40f 99b2 f78b d434 bf48 4cb7 4e99 4eb2
000001f0: 5238 6633 a6e5 29b6 2787 0b35 82c3 a1b7
